core/model/lstm_best_model.pth (torch, 11829 bytes, 5 tensors)

lstm.weight_ih_l0 f4 [80, 5]
00000000: a5e6 2a3d 0eaf b53d 80ed 08be a7e5 213e
00000010: 8d42 37be 8e02 5d3e b314 b83d b4b9 ac3e
00000020: cedc dd3e 954f fabd 22b7 9f3e f370 7a3e
00000030: c8d0 ce3e 74ec bc3e bb5c 81bc 9929 423e
00000040: 4c00 d93e fd53 953e 1a7a 3f3e 292c fb3d
00000050: 1fec d23d 4fb0 593e 37b4 1f3e 63b5 dc3e
00000060: 8868 52be 6802 16bd 5015 dcbb 9bea aabd
00000070: d95f 843d 36ee 09bf 56eb e73d 523a 8cbe
00000080: 1e15 bd3d be72 18bd 88d7 2ebe 965d 923e
00000090: f2da 4c3e 834f b23e e25e 583e 941c a3bb
000000a0: c394 403e 7215 d43d f1de 873e 72a6 d23e
000000b0: 5043 093d 6056 263d 6075 9c3e f2ae 623e
000000c0: 93ac ac3e d125 ecbd e882 05bf 18a2 d0be
000000d0: 46a8 01bf 16f5 2dbe 059b d5bd 7023 503e
000000e0: 9011 643e 696c 223e 2282 c23e c1c0 d33e
000000f0: 42ba 343e d35a 293d 04f1 893e e57d 213e
00000100: 7ed4 053d 164c 923c 2caf 8e3e 45cd d8bc
00000110: acb6 843b e69e 7bbe 6507 3f3e 51a4 ad3d
00000120: b905 733e 9a61 0bbe 8f55 8ebd cf50 8b3d
00000130: 0e22 483e df9e fa3e eb70 183f 342b 913e
00000140: 1962 903c 24d4 5d3c e4bd 943e 9ebf f53d
00000150: a14d 2c3d c441 90be e5f4 a3bd 998e c3be
00000160: 7464 99be 8e7c 163e ec43 563e 4094 073e
00000170: 0489 a63e c74a bf3e 5027 b2bd 0993 5cbe
00000180: ffda e03d 6518 2dbe d849 2fbe 7d6a 9abe
00000190: 8f8b 6dbe 7ba1 0bbd d6c6 eabd d6e4 6dbe
000001a0: ca47 8ebd e664 9abd 76ab acbd 0d07 18bc
000001b0: a1c2 53bd 1b29 8abe e18a 833e 44b6 2e3e
000001c0: bee1 783e c2ef 993d ae38 0ebf f539 42bb
000001d0: 471e 0e3e a069 a5bd ae51 5e3d 5832 bebe
000001e0: 4eaf dc3d 2932 713d 1b87 0e3e 19e9 283d
000001f0: 685d b6be 7002 c1bd 5a82 45bd 6c7d 1dbe
00000200: 9431 513e 4898 91be e4d4 cc3d d914 a7bc
00000210: fafd 8dbe 15e9 8e3d 7005 3dbe 37a7 06bd
00000220: 0809 edbd b8a6 17be 2c83 203e f345 43be
00000230: ad2c 613e 1b0d 8ebc 7cd1 ad3e 9a87 3e3d
00000240: 20af 1abe fbe2 2c3e dfea 8b3e abf2 af3e
00000250: 211a d03e d66c 6fbe f237 8fbe 4441 e5be
00000260: 7d6c c9be 29c2 0cbf 17b3 d13d 7d37 bebd
00000270: 24d5 753e a5be 563e 0b3e 823e beb9 9d3d
00000280: 3a3b a53e 6095 4d3e 40c2 403e 8f35 39bb
00000290: 5646 eabc 8f50 06bd 678d 9abd be46 6c3e
000002a0: 07aa ef3d 0e3f 92be f466 63be 934e d9bd
000002b0: 0ff5 113d f91d 07be 4596 2abe 4c41 e1bd
000002c0: 1121 a3bd a6e4 6c3e 53d7 eb3e 03d7 2abf
000002d0: 513c 2b3e f45a 873e 843c 493e f058 ec3d
000002e0: 4917 04bc 3d05 3dbe f3df 5cbe e028 afbe
000002f0: bd1a b8be 03ee afbd a7f8 c53c 981d bc3c
00000300: 7be3 723e 6b00 a13e c633 46be 959a 17be
00000310: ee49 c1bd 2065 e1bd 4bea 2cbd 1487 0bbd
00000320: 546f 97be ab88 3fbe 123c a63d d435 07bd
00000330: fd6f 07be c83d 85be 214a adbe 536d d8be
00000340: bd7a c0be 0c27 0d3d 7653 923e f343 903e
00000350: 930f febb 3bf9 c63d 5b7a c3bd d586 c33e
00000360: bb99 863e 3468 443e 0373 d23e 5b52 b9bd
00000370: 1854 2c3c 8124 b33e f460 c13d 6cf3 3d3e
00000380: 6f5c 81be 6a62 833e 2412 983e b580 573e
00000390: e6ae ddbb 7f5e 8abe e22a 95be 060d 493d
000003a0: bb06 49bc 1923 703d a00a ac3d f851 9dbd
000003b0: 3746 37be f36c b6be 9eb3 d8be c902 5cbe
000003c0: 8173 6b3e 87a0 303d f1c0 e23d 212f 313d
000003d0: d7f3 35bd 9f7e cfbb 996f b13c e1ef 793e
000003e0: 8cea f93d 3694 303e 8f67 64bd a2ff 24be
000003f0: d9c5 36bd 843a 00be f077 763c 81c9 dabe
0.041723866 0.0887128 -0.13371849 0.15810262 -0.17896481 0.21583006 0.08988323 0.3373543
0.43332523 -0.1222221 0.31194407 0.24457149 0.40393662 0.3689915 -0.015791288 0.18961181
0.4238304 0.2916564 0.18698922 0.12264282 0.10298943 0.21258663 0.1559609 0.43107137
-0.20547688 -0.03662339 -0.006716408 -0.08345529 0.06463594 -0.53879106 0.11324184 -0.27388245
0.092325434 -0.0372188 -0.17074406 0.28587025 0.20005396 0.34826288 0.21129945 -0.004977772
0.18806748 0.10355653 0.26537278 0.41142613 0.03351146 0.040609717 0.305583 0.22137049
0.33725414 -0.115306504 -0.5215287 -0.40748668 -0.5064739 -0.16988024 -0.10429958 0.20326018
0.22272325 0.15861668 0.37989908 0.41357997 0.17649177 0.041346382 0.26941693 0.15770681
0.03267335 0.017858546 0.2786802 -0.026465068 0.0040500965 -0.24572334 0.18655165 0.084786065
0.23732652 -0.13611451 -0.06949913 0.068025224 0.19544241 0.48949334 0.595473 0.28353274
0.017624902 0.013539348 0.29051125 0.11999439 0.04206622 -0.28175175 -0.08005694 -0.3819473
-0.29959452 0.14695951 0.20924348 0.13240147 0.3252641 0.37361738 -0.086989045 -0.21540464
0.1097927 -0.16903837 -0.17118013 -0.3015937 -0.23197769 -0.034089547 -0.11463706 -0.23231825
-0.069472864 -0.07538776 -0.08431141 -0.009279025 -0.051699284 -0.26984486 0.25691894 0.17061716
0.24304864 0.07516433 -0.55555236 -0.0029636596 0.13878737 -0.08076787 0.054277115 -0.37147784
0.10775624 0.058885727 0.13918726 0.041237924 -0.35618138 -0.09424293 -0.048220016 -0.15379876
0.20429069 -0.28436494 0.10001543 -0.020395683 -0.2773283 0.069780506 -0.18459105 -0.032874312
-0.11573988 -0.14809692 0.15675038 -0.19069652 0.21989699 -0.017340234 0.33948886 0.04651604
-0.15105867 0.16883461 0.2732763 0.34364828 0.40644935 -0.23381361 -0.2797237 -0.44776356
-0.39340582 -0.54983765 0.10239237 -0.09287927 0.24007088 0.20971163 0.2543796 0.07701443
0.3227175 0.20076513 0.188241 -0.0028260683 -0.028597992 -0.03279167 -0.075465016 0.23073861
0.11702352 -0.28563732 -0.22207242 -0.1061069 0.035634097 -0.13195027 -0.16658886 -0.109987825
-0.07965291 0.23134097 0.46062717 -0.6673433 0.16722228 0.2643658 0.19651991 0.11540401
-0.008062192 -0.1845903 -0.21569805 -0.34210873 -0.359579 -0.08590319 0.024166418 0.02296333
0.2371959 0.3144563 -0.19355687 -0.14805062 -0.09437929 -0.11005616 -0.042215627 -0.034064367
-0.29577124 -0.18704478 0.08116926 -0.03301032 -0.13226314 -0.26023698 -0.33845618 -0.42270908
-0.37593642 0.034461066 0.285793 0.2817684 -0.0077533214 0.09715506 -0.09544822 0.38188806
0.26289162 0.19180375 0.41103372 -0.09048911 0.010518096 0.34988788 0.094423205 0.1854989
-0.25265834 0.2566102 0.2970134 0.21045192 -0.0067652343 -0.2702522 -0.2913428 0.049084686
-0.012269671 0.05862722 0.08400464 -0.0768165 -0.17897879 -0.35629997 -0.42324537 -0.21485437
0.2299328 0.04312184 0.11071957 0.043257836 -0.044421997 -0.006332233 0.02165966 0.24407913
0.122029394 0.17244038 -0.055762824 -0.16113141 -0.044622276 -0.12522322 0.015043244 -0.4273186

lstm.weight_hh_l0 f4 [80, 20]
00000000: 0948 a5bd 90f8 aa3e 2764 8dbe fed3 69be
00000010: 5079 d4be db30 bdbe 95fd 7fbe 8fb4 ed3d
00000020: 6023 c1be 9d5a 82be 1aad 12bd a587 533e
00000030: 3d86 053f b694 583e fe65 273e 7a88 553e
00000040: 510f b9be 947f ed3d bc09 073d 933d b4bd
00000050: 5485 34bc 2573 acbd 8341 5abe 31c0 003e
00000060: 209f 143e 44ca 143c 9b64 c53d 3686 3fbe
00000070: 967a adbd e9d8 3b3d 19ec 4b3d d95b 0abd
00000080: 34ff 6bbd c3b6 3f3e fa32 7ebe 5fae 513e
00000090: b385 ccbd 99d7 823d 691e 89bd 5572 9fbd
000000a0: 89af 51be 097e 673e 7837 9abd f363 f23d
000000b0: f108 193e a6da 07be 38cb f5bd 978b 6d3e
000000c0: 2085 f03d e0d8 7fbe b490 093b 8eed 2fbe
000000d0: 4a74 c6bd 460e 7f3d 7f01 ff3d e2a4 0e3e
000000e0: a75a 0abe e4fd a23e 53f4 973d 8eb3 0bbe
000000f0: b85f 88bd 3556 db3c d3d9 db3d e131 09be
00000100: c40a ba3d 4b36 0dbe 7a20 8fbd 9086 00be
00000110: 1a3f 813e a9ca 693e dcee 3f3e 3d57 7d3d
00000120: d6fe 253e ee86 51bc 2202 10be b80b f93d
00000130: df30 b2bd d9e6 c4bd 1dff f4bd 0710 71bd
00000140: 16ab 9f3d 3252 c6bd d518 02be b807 213d
00000150: 0b70 16be 1496 19be 88f7 6b3e f1e2 13bd
00000160: 6060 4b3e 5cb0 613e c105 84bc 3280 d83c
00000170: 6702 8f3d 6ba0 073d 52ea ba3c 4be1 db3c
00000180: e4f4 9d3d 7ba3 873e 0653 b2bd 0c15 28be
00000190: cec3 cebc bc36 0abe c174 34bd f093 433e
000001a0: ffc0 263e 0cfe 253e c2b7 8cbc dacf 15be
000001b0: 566a b2bd 8565 90bd 8bdb 1abe cf87 48be
000001c0: c340 b33d 1758 c7bd 9616 e0bd e7df 2fbe
000001d0: 7ab1 263e 8ba2 cebd e8e9 f93d 464f babd
000001e0: 89e2 d3bd ef9d 723e d56f f4bc 54da 573d
000001f0: d490 9b3d a02d 9bbe b8b9 4d3c 9fd3 163e
00000200: 0d2e 90bd bf4a c2bd bc3f f83d 18b1 1abe
00000210: 25de b63d 1030 6f3e 434a 753e 3e4b 7a3d
00000220: f701 adbe 3ba9 023e f919 6dbd 05ea 863e
00000230: 11c5 09be 42b7 a7bb 3b1f b5bd b241 973c
00000240: 8fbc 2c3e 23dd 82bc ca7c 8d3e 72a9 4f3e
00000250: 057a 273e 3cd6 c1bd af72 0abe d895 c33d
00000260: e0d7 d4bc 8113 2c3e 4bb3 9dbd 0dac bfbd
00000270: 28d4 8c3d 30db e43d d204 c03d e817 033e
00000280: a4a8 643e 79b6 843e 56d9 e1bd bc43 81be
00000290: 3201 82be b260 0cbe c5a8 15bd e8bb 84bd
000002a0: a018 9bbe fb98 99be c6d1 9bbe 2270 debd
000002b0: c296 35bd c26c 3d3e 458c 323e 3a98 753d
000002c0: c405 1cbe 4a34 3b3e 1e2a 98bd 7ce5 27be
000002d0: f686 303e d7c7 13be 4c53 b2bd d728 093e
000002e0: 18e3 63bd ff6c 393d 29a0 4b3d 4aee 383d
000002f0: 1307 88bd bd24 efbc 3352 fbbc 72cb a03e
00000300: 1fb0 a6bd 398d be3d 97b7 13be 52e9 55bd
00000310: 4187 c3bd 5876 11be 4135 463e ea54 86bd
00000320: 61ed 18bd ffa5 853e d761 a0be c26d 7fbe
00000330: aeff 41be bd8c 70be 4d11 00be 1667 9b3d
00000340: 064c 903c c120 8e3d d6e5 de3d cc0e 753d
00000350: 44ac 15bb 6596 873e 95f0 cd3d cef7 ae3d
00000360: 5ead f6bd be43 7fbd d6f6 923d ce93 833e
00000370: 351a 7cbe 6702 673d e629 53be 5551 3cbe
00000380: a1d0 4abd 0a30 46be c4c9 9cbc 4c97 093e
00000390: 3d1e 45be 1501 633d 3c8e 1b3e 1758 bdbd
000003a0: 6a0a 083e b8c5 213e 17da e53a 691d babc
000003b0: e101 50be 791a 63be b326 31be c7c9 a1be
000003c0: 2ec9 803d ec2f 41be 63b5 fd3d f541 dd3d
000003d0: 65e6 90be eea3 e7bd 8bd8 663e f5be 70bc
000003e0: e1a6 97bd 3433 18be f27b 8b3d 3501 a1bd
000003f0: 04e4 7a3e 5bbf b43d e686 103c a5ce 823e
-0.0807038 0.33392763 -0.27615473 -0.22834775 -0.41498804 -0.36951336 -0.24999078 0.116067044
-0.377223 -0.25459757 -0.035809614 0.20657213 0.52157956 0.21150479 0.163475 0.20852843
-0.36144498 0.11596599 0.032968268 -0.08800807 -0.011018116 -0.084203996 -0.21314053 0.12573315
0.14513826 0.009081427 0.096383296 -0.18703541 -0.08470647 0.04586116 0.049785707 -0.033779
-0.057616428 0.18722062 -0.24824134 0.20476674 -0.099864386 0.06388778 -0.066952534 -0.07785479
-0.20477118 0.22606672 -0.07530111 0.1183547 0.14944817 -0.13267002 -0.120016515 0.2319778
0.117441416 -0.24985075 0.002099079 -0.17180464 -0.09690149 0.06226947 0.12451457 0.13930085
-0.13511144 0.31834328 0.07419648 -0.13642713 -0.06658882 0.026774505 0.10734906 -0.13397934
0.09084085 -0.13790242 -0.06988616 -0.12551332 0.25243455 0.22831215 0.18743461 0.061850775
0.16210493 -0.012788517 -0.14063314 0.12160438 -0.08700728 -0.09614343 -0.119627215 -0.058853175
0.07796304 -0.09683646 -0.12704785 0.039314 -0.14691179 -0.14998657 0.23043644 -0.0361051
0.19860983 0.22039932 -0.016116025 0.026428316 0.0698288 0.03311197 0.02281681 0.026840826
0.07712725 0.26491913 -0.08707242 -0.16414279 -0.025239851 -0.13497442 -0.044056658 0.19099402
0.1628456 0.16210192 -0.017177466 -0.1463007 -0.08711688 -0.07050613 -0.15122811 -0.19583057
0.08752587 -0.09733599 -0.10941808 -0.17175256 0.1627864 -0.10089596 0.12202817 -0.090971515
-0.103459425 0.2369306 -0.029838482 0.05269845 0.07595983 -0.30308247 0.012556486 0.14729165
-0.070400335 -0.09486913 0.12121531 -0.15106618 0.089290895 0.23358178 0.2395411 0.061106913
-0.33790562 0.12759869 -0.057886098 0.26350418 -0.13454081 -0.0051182816 -0.08843847 0.018463943
0.16868804 -0.015974587 0.2763427 0.20279482 0.1635514 -0.0946469 -0.13520311 0.09550065
-0.025981843 0.16804315 -0.07700213 -0.09358988 0.06876403 0.11174619 0.093759194 0.12802088
0.22329956 0.25920466 -0.11027782 -0.2524699 -0.25391537 -0.13708761 -0.036537904 -0.06481153
-0.30292225 -0.29999527 -0.30433482 -0.108612314 -0.044333227 0.18498519 0.17436321 0.059959628
-0.15236574 0.18281665 -0.07429908 -0.16396135 0.17238984 -0.14431702 -0.08707294 0.13394485
-0.055636495 0.045269962 0.049713288 0.045149125 -0.06641974 -0.029192323 -0.030678844 0.31405216
-0.08139061 0.0930428 -0.14425503 -0.052224465 -0.09547282 -0.14205301 0.19356252 -0.06559165
-0.037335757 0.26103207 -0.31324646 -0.24944213 -0.1894519 -0.23491187 -0.125066 0.075880215
0.017614376 0.06939841 0.108836815 0.059828565 -0.0022838274 0.2648193 0.10055653 0.08543359
-0.12044786 -0.062320463 0.071759865 0.25698704 -0.24619372 0.056398775 -0.20621452 -0.183904
-0.04951537 -0.19354263 -0.019139178 0.13436621 -0.19249816 0.055420954 0.15190977 -0.092453174
0.13285223 0.1579808 0.0017536309 -0.022719102 -0.20313217 -0.22178067 -0.17299919 -0.31599256
0.06288372 -0.18865937 0.123881124 0.10803596 -0.28300777 -0.11310564 0.22543542 -0.014693965
-0.074048765 -0.14863282 0.0681075 -0.07861558 0.24501044 0.08825561 0.008821225 0.25548282

lstm.bias_ih_l0 f4 [80]
00000000: a281 21be 5391 8ebd a074 913d fadb 6039
00000010: f64b 6d3c 858e 3abe 9150 ecbd f893 833d
00000020: 7189 adbd 9ba5 fcbd 6a5d d0bd 3c2a 3f3d
00000030: 4a3d 03be a2ba 68be 2ced f9bc b637 2b3d
00000040: 8cf5 013e 3e63 75be c52c 31bd e8ea 8ebd
00000050: d7fd 45bd 96c1 90bd da9e 193c a55e 52be
00000060: 7928 503c c581 67bd 06ba 8ebe caf6 1cbe
00000070: aff2 56bc be62 94bc 6155 cc3c ee7c cd3d
00000080: 7ed3 34be 1562 55be 1635 14be fdc1 99be
00000090: 6573 09be bb92 c2be 5999 843c c3af 833d
000000a0: a239 84bd 3161 cbbd 3854 03be d994 03be
000000b0: 515e ad3d 6dbf 1cbd 0308 f8bc a84d 793e
000000c0: 6369 063e e9a7 a83d 5b97 6a3d e2fa ad3d
000000d0: eb3d 953d 213a 6cbe 1e02 9cbd 409d f9bb
000000e0: 9886 a33d ac2b e53d b589 bbbd 3864 02be
000000f0: 5574 f4bd 4326 553d 6b91 06bd cd52 373b
00000100: 4f96 2b3e 6b5e 563c 49e1 963d ba28 d9bd
00000110: ec18 3e3d f05d f7ba f9a9 72be a441 1dbd
00000120: cfaa 63be 33bd 003e 3fbe 013d 584c 2a3e
00000130: d5c2 403a 2e84 eabd 2b30 283e a3dd 563d
-0.15772107 -0.06961312 0.071023226 0.00021444252 0.0144834425 -0.1821843 -0.11538804 0.06424707
-0.084734805 -0.12336274 -0.10174067 0.046671137 -0.12816349 -0.22727445 -0.0305086 0.041801177
0.12691325 -0.23963639 -0.043255586 -0.069783986 -0.048337784 -0.070681736 0.009376252 -0.20543917
0.012704962 -0.056520242 -0.278763 -0.15328518 -0.013119384 -0.01811349 0.024943056 0.10033594
-0.17658803 -0.20838197 -0.14473376 -0.30030814 -0.13422926 -0.3800257 0.016186403 0.06430008
-0.06456305 -0.09930647 -0.12825096 -0.1284975 0.08465255 -0.038268495 -0.030277258 0.2434603
0.1312614 0.08235151 0.05727325 0.08495118 0.072872005 -0.2306905 -0.07617591 -0.0076176226
0.07984656 0.111899704 -0.09157125 -0.12733543 -0.11936251 0.052038442 -0.032853525 0.0027972937
0.16756557 0.013084034 0.073671885 -0.10603471 0.046410486 -0.00188726 -0.23697652 -0.038392678
-0.22233127 0.12572174 0.031675573 0.16630685 0.0007353251 -0.114509925 0.16424625 0.052457463

lstm.bias_hh_l0 f4 [80]
00000000: 50d7 91be d52a 5b3e 74b2 82bd a068 293d
00000010: 7887 913d da85 193e 6a89 5bbe 0d1d f2bd
00000020: 834d 813d 584f 14be 3efa c4bd 8fc4 923d
00000030: 22ea 6a3d 89b6 dd3d de8f c5bd 93ff 133e
00000040: f0fb 503d 46ed f6bd 822c cb3c 40e0 92be
00000050: 034a aa3d 34d6 6dbd 4ca7 3dbe 73e1 2abe
00000060: 6978 e4bd 43b7 573d 23e8 d0bd 6d12 ff3d
00000070: 7ad9 a9bd 7e47 bebd 4756 3bbc 1e73 61bd
00000080: ab47 cbbd 844d 1cbd e6d6 a13d 80ab acbd
00000090: b49d a73d 3d90 55bd 0254 b8bb 9e75 84bc
000000a0: 35b1 25bc d0f4 ab3d c4de 6c3e aaee 283e
000000b0: 6b32 cb3d ced3 60bd cca8 043e e3b6 10be
000000c0: 1250 443e c868 1c3e 7001 7c3e cbac 1bbd
000000d0: e2fb 33be 2335 053e 1c78 2bbd d409 333d
000000e0: 6c35 f93d c3ca 52be 55eb 663d 2404 773c
000000f0: 96dc 503d 3aa6 84bd acc2 1b3d 4a9d 503e
00000100: 67b8 f53d eaef 593e 0d5b 64bd e5ad 1cbe
00000110: 05c4 ee3d bc11 04bc e232 f7bd c678 b9be
00000120: 2444 57bd 9d83 27be 073e 6e3e f39c 9b3e
00000130: 915a 833d ac59 a43c 00cb 8fbd fd4b 3ebe
-0.28484583 0.21403058 -0.063816935 0.041359544 0.07105917 0.14992467 -0.21439138 -0.11821947
0.06313612 -0.14483392 -0.096180424 0.07166397 0.057352193 0.108258314 -0.09646581 0.14452963
0.051021516 -0.12056975 0.024801496 -0.28686714 0.08314898 -0.05806561 -0.1852085 -0.16687565
-0.11155779 0.052665006 -0.102005266 0.12454686 -0.082934335 -0.0929098 -0.011434144 -0.055041425
-0.09925779 -0.038159862 0.07902317 -0.084311485 0.08184376 -0.05213951 -0.005625249 -0.016169365
-0.01011305 0.08396304 0.23131853 0.16497293 0.09921726 -0.054889493 0.12955016 -0.14132266
0.1917117 0.15274346 0.24609923 -0.038006585 -0.17576554 0.13008551 -0.041862592 0.043710545
0.121683925 -0.2058516 0.056376774 0.015076671 0.050991617 -0.06477018 0.03802745 0.20372501
0.119980626 0.21282926 -0.055750895 -0.1530071 0.116584815 -0.008060869 -0.12070252 -0.36224955
-0.05255522 -0.163588 0.23265849 0.3039318 0.064137585 0.02006229 -0.07021141 -0.18583675

fc.weight f4 [1, 20]
00000000: dde0 8bbd 1ee8 5fbe 1e29 6c3e 983e 803e
00000010: 127d 813e a38b 9d3d 86e0 bebd bebb 4bbe
00000020: 1e8f 353e 7e10 483e a8e1 dfbd 450d 43be
00000030: de13 7ebe 9548 00be b731 2d3e a8b5 85be
00000040: fbe8 083e f6a9 153e a634 6fbe 1199 623d
-0.06829999 -0.2186589 0.2306256 0.25047755 0.25290734 0.07692649 -0.09320168 -0.19895837
0.17730376 0.19537541 -0.109317124 -0.1904803 -0.24812266 -0.12527688 0.16913496 -0.26115155
0.13370125 0.14615616 -0.23359928 0.055321757
