core/model/tf_best_model.pth (torch, 612084 bytes, 14 tensors)

embedding.weight f4 [128, 11]
0	0x3e6d1ae9	0.23154797
1	0x3e80c1d3	0.25147876
2	0xbd8dc42d	-0.06922183
3	0x3e8e9ca8	0.27853894
4	0xbd943fc2	-0.07238723
5	0x3d7b3468	0.061329275
6	0xbe17b07d	-0.14813419
7	0x3e34bc56	0.1764997
8	0x3e8818b0	0.26581335
9	0xbe63caf4	-0.22245389
10	0x3e83aa9e	0.25716108
11	0x3d692b1c	0.056925878
12	0x3e64cbd8	0.22343385
13	0x3d2a8dd8	0.04163918
14	0x3e15daa7	0.1463419
15	0xbd5c3319	-0.053759668
16	0x3e6e07a0	0.23245096
17	0x3d1e866c	0.038702413
18	0xbe10fa4c	-0.1415798
19	0x3d9caa49	0.07649667
20	0xbe0fbb4a	-0.14036289
21	0xbd35313b	-0.044236403
22	0xbdfaae44	-0.1224027
23	0x3e4ca7bc	0.1998586
24	0xbe73f676	-0.23824486
25	0xbe0ec5b8	-0.13942611
26	0xbd98fecb	-0.07470473
27	0xbe3912ef	-0.18073629
28	0x3d0e873e	0.034796946
29	0xbe97b0ac	-0.29626977
30	0x3e8bf406	0.27334613
31	0xbe820554	-0.2539469
32	0x3e76eff9	0.2411498
33	0x3d3b39eb	0.04570953
34	0xbdd0f556	-0.10203044
35	0x3e3a9ff9	0.18225087
36	0x3d30dc96	0.043179117
37	0x3e5f2ae9	0.21793713
38	0x3ce3da71	0.027814122
39	0xbdcdb691	-0.100445874
40	0x3d999b4d	0.075003244
41	0xbdb36f3b	-0.0876145
42	0x3df6c522	0.12049319
43	0x3e85b931	0.26117852
44	0x3e31076b	0.17287986
45	0xbe087541	-0.13325979
46	0x3e307de8	0.1723553
47	0x3d561e52	0.05227501
48	0x3e232037	0.15930258
49	0xbe3d4e7a	-0.18486968
50	0xbe9ba6e7	-0.30400774
51	0xbdef782c	-0.11692843
52	0xbe6d4bfe	-0.2317352
53	0x3e7ced94	0.24700004
54	0x3dad45f1	0.08460606
55	0x3e0adff7	0.13561998
56	0x3dd9cef1	0.10635174
57	0x3bc645bb	0.006050793
58	0x3e7d697a	0.24747267
59	0xbe5750b0	-0.21026874
60	0x3cecb1c9	0.028893368
61	0xbe45e35b	-0.1932501
62	0x3dcfa0fe	0.10138129
63	0xbdc26182	-0.094912544
64	0x3dcd3ac1	0.10020972
65	0xbd5df8b6	-0.054192267
66	0x3e8026f6	0.25029725
67	0xbe370821	-0.17874195
68	0xbe3819bf	-0.17978571
69	0xbe386438	-0.1800698
70	0x3e906452	0.28201538
71	0x3dcf25e1	0.10114647
72	0x3e992a8a	0.29915267
73	0xbe7d4833	-0.24734573
74	0xbe98a7e7	-0.298156
75	0xbe6f26f6	-0.23354706
76	0xbe456dde	-0.19280192
77	0x3dfc8044	0.12329152
78	0x3ddfe5b8	0.10932487
79	0x3e8116ad	0.25212613
80	0xbe1db256	-0.15400061
81	0xbe53f154	-0.20697528
82	0x3e247ea4	0.16063935
83	0xbdefcff5	-0.117095865
84	0x3e3b2862	0.18277124
85	0xbd920ce5	-0.07131366
86	0x3e2fde11	0.17174555
87	0xbe71b3e5	-0.2360378
88	0xbe11168b	-0.14168756
89	0x3dd1e8e3	0.10249498
90	0x3d98a05e	0.074524626
91	0xbd873bb6	-0.06603186
92	0x3e3c0248	0.18360245
93	0x3e5c30ae	0.21502945
94	0xbe55968e	-0.20858213
95	0xbe1b6fd1	-0.15179373
96	0x3e924237	0.28566143
97	0xbdbe790d	-0.09300432
98	0xbdcd0e32	-0.10012473
99	0xbe953916	-0.29145116
100	0xbe30c12f	-0.17261194
101	0x3d9a7344	0.075415164
102	0xbd236205	-0.0398884
103	0xbe5939e9	-0.21213497
104	0x3bfe6919	0.0077639935
105	0xbe496651	-0.19667937
106	0xbe825d81	-0.25461963
107	0xbe295583	-0.16536526
108	0xbe862a48	-0.26204133
109	0xbe39a9b2	-0.1813114
110	0x3e980018	0.29687572
111	0x3d564353	0.0523103
112	0x3db4b691	0.08823884
113	0xbe926e46	-0.28599757
114	0xbe46d9b5	-0.19418986
115	0xbdd63e1d	-0.10461066
116	0x3d40e330	0.047091663
117	0xbe89bae1	-0.2690039
118	0xbe095596	-0.13411555
119	0xbe3c0882	-0.1836262
120	0x3b696235	0.0035611514
121	0xbdea4004	-0.11437991
122	0xbcbfdc64	-0.02342052
123	0xbe53f1ec	-0.20697755
124	0xbe56eab3	-0.20987968
125	0xbe2b0903	-0.16702656
126	0xbdd671a9	-0.10470898
127	0xbe7910d5	-0.24322827
128	0x3e811bfd	0.25216666
129	0xbd797f3d	-0.06091236
130	0x3e84c56b	0.25931868
131	0x3dbb916a	0.09158595
132	0xbe848faf	-0.25890872
133	0x3e51bd8f	0.20482467
134	0xbdb22d56	-0.087000534
135	0xbdf5528a	-0.11978634
136	0xbe78ce58	-0.24297464
137	0xbe9af9c7	-0.3026869
138	0x3dac8e9e	0.084256396
139	0xbd8a89d2	-0.067645684
140	0x3deb974f	0.11503469
141	0xbe7e85df	-0.24855755
142	0x3e665530	0.22493434
143	0xbe5dcf9b	-0.21661226
144	0xbd416d3a	-0.047223307
145	0x3d8b279e	0.06794666
146	0x3e2495aa	0.16072717
147	0x3e6f9599	0.2339691
148	0x3e8edbca	0.2790206
149	0xbe7068e7	-0.23477517
150	0x3da2f6dd	0.07957242
151	0xbe00c39e	-0.12574622
152	0xbcf32297	-0.02967958
153	0xbe654cf7	-0.22392641
154	0x3e9041b9	0.28175142
155	0xbe5b121d	-0.21393628
156	0x3e2cb95a	0.16867581
157	0x3de8b410	0.11362469
158	0x3db395cb	0.08768805
159	0xbe20288b	-0.15640466
160	0x3e8ac69b	0.2710465
161	0x3d93c23c	0.07214782
162	0x3d3814d5	0.044941742
163	0xbe853a1e	-0.26020902
164	0x3dfc3f10	0.12316716
165	0xbd5664bc	-0.05234216
166	0xbe150105	-0.1455117
167	0x3e80b524	0.251382
168	0x3d73694a	0.059426583
169	0xbe1cee0d	-0.15325184
170	0xbe22c8fa	-0.15896979
171	0xbca5a761	-0.020221414
172	0x3e271382	0.16316035
173	0xbda977d1	-0.08274806
174	0xbe34cabb	-0.1765546
175	0xbdd41ec4	-0.103574306
176	0xbe69b7e6	-0.22824058
177	0x3dd631f9	0.1045875
178	0x3e6bd330	0.2302978
179	0xbe92e074	-0.2868687
180	0x3d871d5b	0.06597396
181	0x3e1c766f	0.15279554
182	0x3d2f9c81	0.042873863
183	0xbde1baf8	-0.110219896
184	0x3e1ea393	0.15492086
185	0x3e1edb11	0.15513255
186	0x3dcc9d20	0.09990907
187	0xbd7674a5	-0.060169835
188	0xbdb29539	-0.08719868
189	0x3ccb1bbd	0.0247935
190	0xbd794df8	-0.060865372
191	0xbda2edde	-0.07955526
192	0x3e3e6a82	0.18595317
193	0x3e848789	0.25884655
194	0xbd129b07	-0.035792377
195	0xbd973830	-0.07383764
196	0xba83da07	-0.0010059484
197	0xbc857d63	-0.01629514
198	0x3da21635	0.07914392
199	0x3dba267a	0.0908937
200	0xbe89066f	-0.2676272
201	0xbdd77f31	-0.10522307
202	0x3e86e330	0.26345205
203	0x3dff8c9d	0.12477992
204	0xbc1bd8ba	-0.009512121
205	0xbe31a536	-0.17348179
206	0xbe34e150	-0.17664075
207	0xbe85bc6a	-0.2612031
208	0xbdb617ef	-0.08891284
209	0x3dd302d5	0.103032745
210	0x3e466553	0.1937459
211	0x3e1008e1	0.14065887
212	0xbe879654	-0.2648188
213	0xbe4161b2	-0.18884924
214	0xbd3fb575	-0.04680391
215	0x3e930567	0.2871506
216	0x3d33f06b	0.043930452
217	0xbd9dc271	-0.077031024
218	0x3dfe46e9	0.12415869
219	0xbdfa9178	-0.12234777
220	0xbe46f433	-0.19429092
221	0x3e61ddb3	0.22057228
222	0xbe0c0627	-0.13674222
223	0xbd7775a7	-0.060414936
224	0xbe8f9fab	-0.28051504
225	0x3e508572	0.20363405
226	0x3e6df920	0.23239565
227	0x3de8459e	0.113414034
228	0xbe5411df	-0.20709942
229	0xbe9630fd	-0.2933425
230	0xbe75bad6	-0.23997054
231	0x3e691e8f	0.22765563
232	0x3e16f9cd	0.14743729
233	0x3e834964	0.2564193
234	0x3e246617	0.16054569
235	0x3da767e6	0.08174114
236	0x393d6f5d	0.0001806593
237	0xbe6820db	-0.22668783
238	0xbe829c16	-0.2550971
239	0xbe8e89fe	-0.27839655
240	0x3e016cfb	0.12639229
241	0xbe16840c	-0.1469881
242	0xbd7d42c0	-0.061831236
243	0xbe334bb1	-0.17509343
244	0xbd68cccd	-0.05683594
245	0xbe5b7d60	-0.21434546
246	0xbe4b8fd0	-0.19879079
247	0x3dcc5ad2	0.0997826
248	0xbdc93c96	-0.09826009
249	0x3e3faa2d	0.1871726
250	0xbdc5878a	-0.09644993
251	0xbe60933e	-0.21931168
252	0xbd64cae6	-0.05585756
253	0xbe170100	-0.14746475
254	0xbdbfaf2d	-0.09359584
255	0xbe93ace7	-0.28842852

embedding.bias f4 [128]
0	0xbe2fb88f	-0.17160247
1	0x3b7b8273	0.0038377314
2	0xbcfc5018	-0.03079991
3	0x3d781fac	0.06057708
4	0x3c5a1411	0.013310448
5	0xbe15b362	-0.1461921
6	0xbdba271a	-0.09089489
7	0xbb86aeb2	-0.004110181
8	0xbe395f18	-0.18102682
9	0x3d0c9514	0.03432186
10	0xbca3d3a7	-0.019998385
11	0x3dfe83c3	0.12427475
12	0x3d9c792f	0.076403014
13	0x3e643659	0.22286357
14	0xbc99f866	-0.018795203
15	0xbe5c62c9	-0.21522059
16	0x3e01d87a	0.12680236
17	0xbe49d2be	-0.19709298
18	0xbcf3809d	-0.029724414
19	0xbdd7dbdc	-0.10539982
20	0xbdc9d48b	-0.098549925
21	0xbdd73322	-0.105078
22	0x3e8f1a5c	0.27949798
23	0x3e2bd640	0.16780949
24	0x3d8fb4c7	0.070169024
25	0x3e920911	0.28522542
26	0xbe8678eb	-0.26264128
27	0x3d554f40	0.05207753
28	0x3e3bf914	0.18356735
29	0x3e51931a	0.20466271
30	0xbe6ecf2e	-0.2332122
31	0x3de03810	0.10948193
32	0xbe211dfe	-0.15734097
33	0xbc6c11fb	-0.014408584
34	0xbd68b699	-0.056814764
35	0xbe797db9	-0.24364366
36	0xbe911b5f	-0.28341195
37	0xbe468ac3	-0.19388871
38	0x3e0d5e76	0.13805565
39	0x3e09b732	0.1344879
40	0xbe86bc92	-0.26315743
41	0xbde94ba9	-0.11391384
42	0xbbd34af0	-0.006448142
43	0xbe819452	-0.25308472
44	0x3e1ee1b8	0.15515792
45	0x3e86f423	0.26358137
46	0x3d79edf7	0.061017957
47	0xbe61c761	-0.22048713
48	0x3d85d257	0.0653426
49	0x3dcf61ec	0.10126099
50	0x3e6b8d9c	0.23003238
51	0xbe1b3f56	-0.1516088
52	0xbe84b3fe	-0.25918573
53	0x3dff9e5c	0.124813765
54	0x3cc72412	0.024309192
55	0xbdc78213	-0.097416066
56	0xbde9d01f	-0.11416649
57	0xbe0606c1	-0.13088514
58	0x3e7e32bf	0.24824046
59	0xbd77863d	-0.060430754
60	0x3e41d84a	0.18930164
61	0x3e86c0bc	0.2631892
62	0x3d23fa72	0.040033765
63	0x3d642545	0.055699605
64	0xbcc6e69f	-0.02427989
65	0x3e4dad0d	0.20085545
66	0xbe845a5a	-0.25850183
67	0x3dde2189	0.1084624
68	0xbd5b0b7b	-0.053477746
69	0x3e0b62d5	0.1361192
70	0x3b4d4b06	0.0031325235
71	0xbde03725	-0.10948018
72	0xbca67f09	-0.020324247
73	0x3e1d9bdc	0.15391487
74	0xbe5d961e	-0.21639296
75	0xbe37964d	-0.17928429
76	0xbd4ee672	-0.05051274
77	0xbdf531f7	-0.11972421
78	0x3de2994d	0.11064396
79	0x3e426230	0.18982768
80	0xbd0ce4a4	-0.034397736
81	0x3e8f1cbb	0.27951607
82	0xbe06cb5c	-0.13163513
83	0xbe151ba5	-0.14561327
84	0xbe0a2ac8	-0.13492882
85	0xbe4f613d	-0.20251937
86	0xbe4e23f5	-0.20130904
87	0xbe81a0a5	-0.25317875
88	0xbe86c343	-0.26320848
89	0x3d91bd2c	0.0711616
90	0x3e3da24e	0.18518946
91	0x3e936b5c	0.28792846
92	0x3e814653	0.25248966
93	0xbc9716a0	-0.018443406
94	0x3d65665b	0.056005817
95	0xbe3d58e2	-0.18490937
96	0x3de87a94	0.11351505
97	0xbe9770dc	-0.29578292
98	0x3e10844d	0.14112969
99	0x3d4d1016	0.05006417
100	0x3da9f395	0.08298413
101	0x3ddfd83c	0.10929915
102	0xbe113f62	-0.14184335
103	0x3e849701	0.25896457
104	0x3e210aab	0.15726726
105	0x3e406d91	0.18791796
106	0x3d12d88b	0.035851043
107	0x3e3ebede	0.18627498
108	0x3e54f4a8	0.20796454
109	0x3e071560	0.13191748
110	0x3e64474a	0.2229282
111	0xbd8769c7	-0.06611972
112	0x3e433c64	0.19066006
113	0x3d9c6c6f	0.076378696
114	0x3e3c6787	0.18398868
115	0x3e927974	0.28608286
116	0x3d87558a	0.06608112
117	0xbdeba28f	-0.11505615
118	0xbcd4ef30	-0.02599296
119	0x3d9c17a6	0.07621698
120	0x3d698fec	0.05702202
121	0xbdaa9691	-0.083294995
122	0x3e6f4040	0.23364353
123	0x3e3a43b4	0.18189889
124	0xbe351304	-0.17683035
125	0xbcfa18e4	-0.030529447
126	0xbcf941f4	-0.030426957
127	0xbe395015	-0.18096955

pos_encoder.positional_embeddings.weight f4 [10, 128]
0	0xbf59b0db	-0.85035485
1	0xbf33342e	-0.70001495
2	0xbe5304da	-0.2060732
3	0xbf482100	-0.78175354
4	0x3f2ecdb6	0.6828264
5	0x3f48a99d	0.7838381
6	0xbf8dd62b	-1.1080984
7	0xc0469df6	-3.1033912
8	0xbf7c3042	-0.98511136
9	0xbf183bcd	-0.5946625
10	0xbf3723eb	-0.7153918
11	0xbeef2336	-0.4670655
12	0x3f0d4819	0.5518814
13	0x402981c8	2.6485462
14	0x3f878feb	1.0590795
15	0xbe204f99	-0.15655364
16	0xbf644aa1	-0.89176375
17	0x3e4389cf	0.19095539
18	0x3ffc1a2d	1.9695488
19	0xbf3fab2e	-0.74870574
20	0xbf5f13cf	-0.871396
21	0xbe9cd93c	-0.30634487
22	0xbf08a44f	-0.53375715
23	0xbeb68bd3	-0.35653552
24	0xbf9fe2ed	-1.2491127
25	0xbfc2f3ed	-1.523069
26	0xbf4f24d1	-0.8091555
27	0x3f91192c	1.1335807
28	0x3e5c5511	0.21516825
29	0x3ed3d86f	0.41376063
30	0x3b8c527f	0.0042822952
31	0xbf1090b8	-0.56470823
32	0xbe2e0631	-0.1699455
33	0xbe9d0fd1	-0.3067613
34	0xbfa4938a	-1.2857525
35	0xbfade833	-1.3586487
36	0xbd42edf4	-0.04759021
37	0xbf1da37c	-0.6157758
38	0x3f9dc361	1.232525
39	0xbf50a0c1	-0.8149529
40	0x3f927549	1.1442043
41	0xbf96ff6c	-1.1796699
42	0xbd1405f7	-0.0361385
43	0x3f2c8321	0.67387587
44	0x3f6c8c46	0.9240154
45	0x3e87a2ee	0.26491493
46	0x3f218030	0.63086224
47	0xbf34e946	-0.70668447
48	0xbf5a5343	-0.852833
49	0x3f66a3af	0.9009351
50	0xbf1101da	-0.5664345
51	0x3ec61c92	0.38693672
52	0xbf456125	-0.77101356
53	0xbe1cb652	-0.15303925
54	0x3ed73866	0.42035216
55	0x3fb3d64e	1.4049776
56	0xbf53407a	-0.8252026
57	0x3fc7b415	1.5601832
58	0xbf8b14d8	-1.0865736
59	0x3f95fa6f	1.1717051
60	0x3f97ff80	1.1874847
61	0x40036a49	2.0533621
62	0x3f28b84b	0.6590621
63	0xbf8d6737	-1.1047124
64	0xbe992e14	-0.29917967
65	0x3ee82eec	0.453483
66	0xbea36a73	-0.31917152
67	0xbed21fea	-0.41039973
68	0x3ec966dd	0.3933629
69	0x3f90a8af	1.1301478
70	0x3f51f34c	0.82011867
71	0x3f7175d1	0.943204
72	0xbe228009	-0.15869154
73	0xbfcd1143	-1.6020893
74	0xbd86b8e5	-0.065782346
75	0xbf7be96b	-0.9840304
76	0x3f94a58e	1.1613023
77	0x3fce0487	1.6095132
78	0xbe971130	-0.295053
79	0x3f8a3839	1.0798408
80	0x3f6342d6	0.8877386
81	0xbf5bac2c	-0.8580959
82	0xbe8c87b7	-0.27447292
83	0x3f7ad42f	0.97980016
84	0xbe3336d7	-0.17501388
85	0xbdfbcaa4	-0.1229451
86	0x3f3e1575	0.7425149
87	0x3eb7a2bf	0.35866353
88	0xbf07c66a	-0.5303713
89	0x3f236cd7	0.6383795
90	0xc03ee3c7	-2.9826524
91	0x3e40e052	0.18835571
92	0xbeefbf82	-0.46825796
93	0xbf7648ce	-0.9620484
94	0xbfc0e19d	-1.5068852
95	0x3fc0d592	1.5065176
96	0xbf6dddf7	-0.92916816
97	0xbf22e9fa	-0.6363827
98	0x3e5b2d78	0.21404064
99	0xbee00196	-0.4375121
100	0xbe0c8d85	-0.1372586
101	0xbc8d342d	-0.017236793
102	0x3fd33959	1.6501876
103	0x3f88701f	1.0659217
104	0xbe34f296	-0.17670664
105	0xbf9f469a	-1.2443421
106	0x3f03897c	0.5138166
107	0xbe1c14b4	-0.15242273
108	0x3e0da102	0.13830951
109	0x3f9c6a69	1.2219974
110	0xbf449f51	-0.768056
111	0x3f6ac60a	0.91708434
112	0x3ed19ffa	0.40942365
113	0x3e812f8b	0.25231585
114	0x3e046b00	0.12931442
115	0xbe49cc1f	-0.19706772
116	0xbfbcfcf3	-1.4764694
117	0xbf16f2a4	-0.5896399
118	0x3f558bfb	0.8341672
119	0xbe6bf601	-0.23043062
120	0xbf9dd439	-1.233039
121	0x3e774976	0.24149117
122	0xbf90c344	-1.130959
123	0x3f48e7c3	0.7847864
124	0x3c43260a	0.011910925
125	0x3ec28e6a	0.37999278
126	0xbfd342d3	-1.6504768
127	0xbec1d210	-0.37855577
128	0x3ddac442	0.106819645
129	0xbdd3d5a2	-0.103434816
130	0x3db4d05d	0.08828805
131	0x3f365e85	0.71237975
132	0xbf670371	-0.90239626
133	0x3f64a992	0.89321244
134	0x3ef547db	0.47906384
135	0xbf56984b	-0.8382613
136	0x3eaf13d4	0.34194815
137	0xbf9f6bdd	-1.2454792
138	0xbf1318e0	-0.5745983
139	0xbff37847	-1.9021081
140	0xbf769a26	-0.9632896
141	0x3eba99d8	0.36445498
142	0xbf1333d1	-0.5750094
143	0x3f9e0455	1.2345072
144	0x3f5e049a	0.8672577
145	0xbf0549ea	-0.5206591
146	0x3f9eb231	1.239813
147	0xbf67f2c4	-0.90604806
148	0x3f43b528	0.764483
149	0x3fcf510c	1.6196609
150	0x3dadb9bd	0.084826924
151	0x3e4da42f	0.20082162
152	0x3ea82131	0.32837823
153	0xbf741cbd	-0.9535635
154	0x3fc98424	1.5743451
155	0x3feea741	1.8644792
156	0xbf88b975	-1.0681597
157	0xbe647a0e	-0.22312185
158	0x3e80491b	0.25055775
159	0x3f94e498	1.1632261
160	0xbde74d7f	-0.11294078
161	0xbd7dc27d	-0.061953057
162	0x3f59a248	0.85013247
163	0xbf5b2b9f	-0.85613436
164	0xbf1c7081	-0.6110917
165	0x3f87b4f1	1.0602094
166	0x3f9c28af	1.2199916
167	0x3f463105	0.7741855
168	0xbfa3c737	-1.279517
169	0xbfc540cb	-1.5410398
170	0xbf18d16b	-0.59694546
171	0x3ea36978	0.31916404
172	0xbd70e270	-0.058809698
173	0xbf967986	-1.1755836
174	0xc0310818	-2.766119
175	0xbcffee4d	-0.03124156
176	0xbf6b01ff	-0.9179992
177	0x3eef7544	0.46769154
178	0x3feffb78	1.8748617
179	0x3f06d2b3	0.5266525
180	0x3d6b63a5	0.057468075
181	0x3ed75072	0.42053562
182	0x3f72c279	0.9482799
183	0x3edc4d57	0.43027756
184	0xbe4fa436	-0.20277485
185	0xbfbc1ff7	-1.4697255
186	0x3f01ea97	0.5074858
187	0x3e8c8f13	0.27452907
188	0x3fad1ce0	1.3524437
189	0xbf660ce5	-0.89863425
190	0xbfcc3b27	-1.5955552
191	0x3f2c70a8	0.673594
192	0xbf7f2aed	-0.99674875
193	0xbeb2905c	-0.34875762
194	0x3e5bdf70	0.21471953
195	0x3f900cf8	1.1253958
196	0xbfbff339	-1.4996101
197	0xbe7555fe	-0.23958585
198	0xbefb1fe4	-0.49047768
199	0xbd7c5cd4	-0.061611965
200	0xbf6730fa	-0.9030911
201	0x3f23e4f6	0.6402124
202	0x3f42471c	0.75889754
203	0xc001024b	-2.015765
204	0xbf2c6f7b	-0.67357606
205	0xbf6aefc3	-0.917721
206	0x3f9aa0e0	1.2080345
207	0xbfac4aab	-1.3460287
208	0xbef49e42	-0.4777699
209	0x3fdb677d	1.7140957
210	0xbf11ffe2	-0.5703107
211	0xc03a7b25	-2.9137661
212	0x3f8b1105	1.0864569
213	0x3d9bfa6b	0.07616123
214	0x3f9dec98	1.2337828
215	0x403adbda	2.9196687
216	0x3ff67b6f	1.9256419
217	0xbf0eb681	-0.5574723
218	0xbfa67b38	-1.3006353
219	0x3f88e951	1.0696203
220	0xbee8c4a1	-0.45462516
221	0x3fadaea9	1.3568927
222	0xc01aa8aa	-2.4165444
223	0xbdb19c45	-0.08672384
224	0x3de0c6d2	0.10975422
225	0x3dea2897	0.11433523
226	0xbcb30816	-0.021854442
227	0x3ec3020a	0.38087493
228	0x3e7c8452	0.24659851
229	0xbf63aa31	-0.88931566
230	0x3fb6a3b3	1.4268707
231	0xbff6e139	-1.9287483
232	0xbf1179bb	-0.5682637
233	0xbf2d1e99	-0.67624813
234	0xbdcee2bc	-0.1010184
235	0x3f738e00	0.9513855
236	0x3e41a22c	0.1890952
237	0xbdf3f7b5	-0.11912481
238	0xbe6dfa08	-0.2323991
239	0xbeb1f4b8	-0.34757018
240	0xbf894dfc	-1.0726924
241	0xbf0af87a	-0.54285395
242	0xbea8cd88	-0.32969308
243	0x3d54f9ac	0.05199592
244	0x4006aa26	2.104135
245	0x3f44cf61	0.76878935
246	0xbeb02528	-0.34403348
247	0x3f9d788f	1.2302417
248	0xbe7e3fdd	-0.2482905
249	0x3e5f41cd	0.21802445
250	0xbf2f4c74	-0.68476033
251	0xbefe2ea1	-0.4964495
252	0x3ecb856f	0.3975024
253	0x3f3240df	0.69630235
254	0x3d53bc3e	0.051693194
255	0x3e9403ca	0.2890914

self_attn1.in_proj_weight f4 [384, 128]
0	0xbd86fad8	-0.065908134
1	0xbd6a3ed8	-0.05718884
2	0x3ce8fc73	0.02844069
3	0xbcd02b09	-0.025411146
4	0xbd9b5a88	-0.07585627
5	0xbb9ba9dd	-0.004750474
6	0xbdace794	-0.084426075
7	0xbd6b56e3	-0.05745591
8	0x3d963617	0.073345356
9	0x3b89e81c	0.004208578
10	0xbd107ae3	-0.035273444
11	0x3dade686	0.084912345
12	0x3c58afde	0.013225524
13	0x3da2dd83	0.07952406
14	0x3d1e2e0f	0.038618144
15	0x3c54d88b	0.012991081
16	0xbd14de5d	-0.036344875
17	0xbd5880d9	-0.052857254
18	0x3db21678	0.08695692
19	0x3cfeb3be	0.031091567
20	0x3daaffac	0.08349547
21	0x3d83964b	0.064251505
22	0x3799aef0	1.8320483e-05
23	0xbdde3268	-0.10849458
24	0x3d1311fc	0.035905823
25	0xbcc27ef1	-0.023742171
26	0x3cd2a431	0.025713058
27	0xbd16bba3	-0.036800038
28	0x3da78a62	0.08180691
29	0x3de459ac	0.11149916
30	0xbd744595	-0.05963667
31	0xbc6a1e8e	-0.014289511
32	0xbd9b86bd	-0.07594059
33	0x3d6880b2	0.05676336
34	0xbd944545	-0.072397746
35	0xbd9835bc	-0.07432124
36	0xbd93b9d4	-0.07213178
37	0xbdaaaba2	-0.083335176
38	0x3db08054	0.08618227
39	0xbd3fbfe1	-0.04681385
40	0x3d917ff5	0.07104484
41	0xbd1857e0	-0.03719318
42	0xbcd7cca3	-0.026342696
43	0xbcbdb1c6	-0.023156058
44	0xbdc0fb87	-0.09422975
45	0x3d2d2959	0.04227576
46	0xbd1f5865	-0.03890266
47	0x3cc78696	0.024356168
48	0xbdb21f0e	-0.086973295
49	0x3c6f68d4	0.014612395
50	0x3daaab78	0.08333486
51	0xbd34162a	-0.04396645
52	0x3cf46045	0.029831061
53	0xbde89219	-0.11355991
54	0xbd54052d	-0.05176275
55	0x3dc16a9d	0.09444163
56	0x3d466d49	0.048444066
57	0x3d35f417	0.044422235
58	0x3d5c2175	0.053742845
59	0xbcd23936	-0.025662046
60	0xbd56df2c	-0.052458927
61	0x3db9c615	0.09070984
62	0xbcfe6b89	-0.031057136
63	0xbb780df9	-0.0037850125
64	0xbdb2500a	-0.087066725
65	0x3d9e355c	0.07725021
66	0xbd28f861	-0.041252498
67	0xbd3a0175	-0.045411546
68	0xbd96c223	-0.073612474
69	0x3c9d7529	0.019220905
70	0xbdb2546a	-0.08707507
71	0x3dbf2d9d	0.09334872
72	0x3db03889	0.08604533
73	0xbd995f27	-0.07488852
74	0xbdd646ff	-0.1046276
75	0x3d048eff	0.032362934
76	0xbd905df9	-0.07049174
77	0xbde545f7	-0.11194985
78	0x3d84948e	0.06473647
79	0xbc90c9a4	-0.017674275
80	0x3c63bf6a	0.013900617
81	0x3beef1a5	0.00729199
82	0xbd8e92ca	-0.069615915
83	0xbd652d12	-0.055951186
84	0x3d1dbe10	0.038511336
85	0xbdc06bdb	-0.09395572
86	0xbc58e13d	-0.013237295
87	0xbc751bf8	-0.014960282
88	0xbd83b1b7	-0.06430381
89	0x3ddd1c43	0.10796406
90	0xbdd70bdb	-0.10500308
91	0xbdc867c9	-0.097854204
92	0xbda33fe4	-0.079711705
93	0x3d639ba9	0.05556837
94	0xbdb20a1b	-0.08693334
95	0x3d7d6844	0.061867014
96	0x3ddc8468	0.10767442
97	0x3dc8d349	0.098059244
98	0x3dbf563a	0.09342618
99	0x3cb131b5	0.021630147
100	0xbdce4905	-0.10072521
101	0x3c8fa5b6	0.017535072
102	0x3d19b37f	0.037524696
103	0xbb3b8485	-0.0028612923
104	0xbdcb2a5e	-0.0992019
105	0x3d9435e8	0.07236844
106	0x3cb9f065	0.022697637
107	0x3d8fad00	0.07015419
108	0xbbfa0a04	-0.0076305885
109	0xbdc08644	-0.09400609
110	0x3db8ec8c	0.09029493
111	0xbdcd2906	-0.1001759
112	0xbdaaf308	-0.08347136
113	0x3dd192d3	0.102330826
114	0xbce3b86a	-0.027797896
115	0x3d580155	0.052735645
116	0x3d7d0960	0.06177652
117	0xbbc0c963	-0.005883382
118	0xbcccca9e	-0.02499896
119	0x3d3169d6	0.043313824
120	0xbc600a2a	-0.013674298
121	0x3d447eae	0.047972374
122	0xbcc38289	-0.023865955
123	0xbd883fec	-0.06652817
124	0xbd9b1587	-0.075724654
125	0xbdda65ca	-0.10663946
126	0xbd2392f5	-0.03993507
127	0xbd6fa367	-0.058505442
128	0x3d03ba8e	0.032160334
129	0x3b245ff0	0.0025081597
130	0xbd9fef37	-0.078092985
131	0xbd9ab745	-0.07554487
132	0xbc6fb5d8	-0.014630757
133	0x3d2a19b0	0.041528404
134	0x3afb3643	0.0019165952
135	0x3c3bb72b	0.011457245
136	0xbd764532	-0.060124584
137	0xbd7b3289	-0.06132749
138	0xbc66acba	-0.014079267
139	0x3d40e59e	0.04709398
140	0xbdd044b1	-0.10169352
141	0x3d6f60d4	0.058441952
142	0x3d7c007e	0.061523907
143	0xbde05c58	-0.10955113
144	0x3d2ad918	0.041710943
145	0x3c8448f8	0.016148075
146	0x3d2ea9ea	0.04264251
147	0xbd822e83	-0.06356528
148	0x3d8d3d23	0.068964265
149	0xbd86bfdf	-0.06579565
150	0xbd38ce33	-0.045118522
151	0x3d1e022d	0.038576294
152	0xbc5ac73b	-0.013353164
153	0x3d9fa6b2	0.077954665
154	0xbcb7de55	-0.022444883
155	0xbda66fbb	-0.0812678
156	0xbdb88af6	-0.0901088
157	0x3c012bef	0.00788401
158	0xbdb16fb8	-0.08663887
159	0x3dc687f8	0.09693903
160	0x3dc1d6eb	0.094648205
161	0x3d8199a4	0.06328133
162	0xbdaac4f5	-0.08338348
163	0xbceb9f38	-0.028762445
164	0x3da22ad8	0.07918328
165	0x3cd1f1d2	0.025628004
166	0x3bc137d9	0.00589655
167	0xbb9bdb1e	-0.0047563454
168	0xbd780d90	-0.06055981
169	0xbd0933cf	-0.033496674
170	0x3d8536fb	0.06504627
171	0xbcb83103	-0.022484308
172	0xbcd42b43	-0.025899535
173	0x3d522940	0.05130887
174	0xbd54a042	-0.051910646
175	0xbcc39690	-0.023875505
176	0x3db4b541	0.08823634
177	0x3c892267	0.016740037
178	0x3d53f964	0.05175151
179	0xbd78365a	-0.06059871
180	0x3d46bf54	0.04852231
181	0xbd705d4b	-0.05868272
182	0x3dda8a1f	0.10670876
183	0xbd048998	-0.032357782
184	0xbda5b0c4	-0.08090356
185	0xbcc05af0	-0.023480862
186	0x3da721aa	0.08160718
187	0x3da76bbb	0.08174845
188	0x3c275258	0.010212503
189	0x3da11a80	0.078663826
190	0xbd19dec8	-0.037565976
191	0xbc4bc480	-0.012436986
192	0x3da64a5b	0.08119651
193	0x3b0f11d4	0.0021830695
194	0x3c42c909	0.011888751
195	0x3d819ec8	0.06329113
196	0x3be5cee9	0.007013191
197	0xbd7daecc	-0.061934277
198	0x3c645732	0.013936805
199	0xbbff153e	-0.0077845147
200	0xbc529748	-0.012853451
201	0x3dd7855c	0.10523483
202	0x3dbd1852	0.09233154
203	0xbdc95c6b	-0.098320805
204	0xbd35af47	-0.04435661
205	0xbc302df0	-0.01075314
206	0x3d867611	0.06565488
207	0xbc96f2e0	-0.018426359
208	0xbc921f70	-0.017837256
209	0xbc86e9db	-0.016468933
210	0xbd8e62cf	-0.0695244
211	0xbdcab694	-0.09898105
212	0xbdbe8f29	-0.093046494
213	0x3c58a277	0.013222328
214	0x3d1a5127	0.03767505
215	0x3a0b8da7	0.0005323537
216	0x3dc64a83	0.09682181
217	0xbc8ca2c9	-0.017167466
218	0x3da865e8	0.08222562
219	0xbc581e42	-0.013190808
220	0xbd6d4bb0	-0.05793351
221	0x3c65609a	0.014000082
222	0xbde2b667	-0.11069947
223	0x3d2924e4	0.041294947
224	0x3c8d1f75	0.017226914
225	0x3d4e416f	0.05035537
226	0x3d8361e7	0.06415158
227	0x3dbcd12a	0.092195824
228	0xbd94773f	-0.07249307
229	0xbdcdd269	-0.10049898
230	0x3c3a25bc	0.011361536
231	0xbd3ce369	-0.046115313
232	0x3a91d4a5	0.0011125995
233	0x3dc778c9	0.09739835
234	0x3c703bb8	0.014662676
235	0x3c98b403	0.018640524
236	0xbdc090a1	-0.09402586
237	0x3b0a488e	0.0021100375
238	0xbda7bd3b	-0.0819039
239	0xbccf6833	-0.02531824
240	0x3d99d617	0.075115375
241	0xbc2477e0	-0.010038346
242	0x3d35fca5	0.044430394
243	0x3d266b4b	0.040629666
244	0x3d967af8	0.07347673
245	0x3cfcf861	0.030880155
246	0xbdce9490	-0.1008693
247	0xbbb90070	-0.005645804
248	0x3c0506e8	0.008119322
249	0xbd3f45e4	-0.046697512
250	0xbd9cd621	-0.07658029
251	0xbd82f026	-0.06393461
252	0x3d4236a8	0.047415406
253	0xbd06eea4	-0.03294243
254	0xbc1afdd7	-0.009459934
255	0x3cf8c558	0.030367538

self_attn1.in_proj_bias f4 [384]
0	0xbc0edffe	-0.008720396
1	0x3b5acaea	0.0033385106
2	0xbb9d5597	-0.004801463
3	0xbab4883f	-0.0013773515
4	0xbb171694	-0.002305423
5	0x3b6b5f12	0.003591482
6	0xbbb135aa	-0.0054080086
7	0xb89503c5	-7.105576e-05
8	0x3b753c30	0.0037419908
9	0xbbb37395	-0.005476425
10	0x3b0702b7	0.0020600983
11	0xbbb0ed93	-0.005399415
12	0x3601d4c8	1.9346353e-06
13	0xba77724b	-0.0009439333
14	0xbb10fc3d	-0.0022123002
15	0x3aadc500	0.0013257563
16	0x3b22a8da	0.0024819882
17	0xb9722d42	-0.00023095778
18	0x3a748ecb	0.0009329139
19	0xba1f5a62	-0.0006078837
20	0x3afdf1bb	0.001937441
21	0x3abbda94	0.0014332109
22	0xbaa3500a	-0.0012459767
23	0xbb0f5415	-0.0021870185
24	0x3a5860a3	0.0008254146
25	0xba8589d3	-0.001018817
26	0x3aac1191	0.0013127794
27	0xba2a1ed3	-0.00064895785
28	0x3b9db4be	0.004812806
29	0x39a9117e	0.00032247225
30	0xba1a06a7	-0.0005875625
31	0xbaabf224	-0.0013118428
32	0x3b06c866	0.0020566224
33	0xb9cf45a4	-0.00039534003
34	0xbb639be2	-0.0034730365
35	0xbb7541cd	-0.0037423254
36	0xba9570f5	-0.0011401462
37	0x3afade08	0.0019139657
38	0xba752889	-0.00093520485
39	0xbac33bcd	-0.0014895141
40	0x3a93a9cb	0.0011265812
41	0xb90e31ca	-0.00013560723
42	0xb842b85e	-4.642491e-05
43	0x3a6bceff	0.00089953834
44	0x3ace9e6f	0.001576377
45	0x3a498694	0.0007687595
46	0xb9cfed44	-0.00039658893
47	0x39918a76	0.00027759717
48	0x3a523da3	0.0008020049
49	0x3a90ddb2	0.0011052398
50	0x3a4b349e	0.0007751676
51	0xbbc25250	-0.0059302226
52	0x3b4a76b7	0.0030893513
53	0x3b003850	0.0019564815
54	0xbb6df476	-0.003630904
55	0xbb9ce4f2	-0.0047880346
56	0xbb5c8cd8	-0.0033653285
57	0x3baca279	0.0052683917
58	0x3adafa44	0.0016706665
59	0x3ab482f3	0.0013771936
60	0x3bc5f3cc	0.0060410257
61	0xbad3dcd0	-0.001616383
62	0x3a93114e	0.0011220367
63	0xbaef1f59	-0.0018243595
64	0xbaef7fd7	-0.0018272352
65	0xbb21f80e	-0.0024714503
66	0x3b6431e7	0.0034819783
67	0x3a0ae9eb	0.0005299139
68	0x3a05ed8f	0.00051089464
69	0x395af7ad	0.00020882367
70	0x3a91f913	0.0011136852
71	0xba124ccd	-0.0005580902
72	0x3a7b8089	0.00095940434
73	0x3a75338a	0.0009353688
74	0x3b49a982	0.00307712
75	0x3a4e3ed2	0.00078676373
76	0xbb25a36f	-0.0025274416
77	0xbad259f2	-0.0016048534
78	0xbb332bbe	-0.0027339305
79	0x3aaabcdb	0.0013026254
80	0x3accdaa8	0.001562913
81	0xbbc6a01e	-0.006061568
82	0xbb2cc651	-0.0026363323
83	0x3b0e3a09	0.0021702072
84	0xbbac5283	-0.0052588596
85	0xbac71de2	-0.0015191401
86	0x3b6f5a21	0.0036522227
87	0xbc057700	-0.008146048
88	0xba9064f6	-0.0011016417
89	0xbb67f39d	-0.0035393008
90	0xbb29b5de	-0.0025895755
91	0x3bdb18be	0.006686299
92	0xbbac4ba8	-0.0052580424
93	0xbbb63336	-0.005560304
94	0x3bb08226	0.0053866087
95	0xb9d7f7f8	-0.00041192747
96	0x3ae79a06	0.0017669804
97	0x3b0de025	0.0021648493
98	0xbb53685e	-0.0032258253
99	0xbb401656	-0.0029310188
100	0x3b3f9d48	0.0029238034
101	0xbb2da52c	-0.0026496155
102	0x3b046d5f	0.0020206792
103	0xbb330e38	-0.0027321707
104	0x3b009dd0	0.0019625314
105	0xba9ae54a	-0.0011817601
106	0x3ab575cc	0.001384431
107	0x3b20a9cd	0.0024515272
108	0xbb1b5610	-0.002370242
109	0xba01fc2e	-0.0004958537
110	0xbb19c6f6	-0.0023464537
111	0xba0f828e	-0.0005474471
112	0x3b8c8895	0.004288743
113	0xbaddb58a	-0.0016915065
114	0x3bf7951a	0.007555616
115	0x3bb17d32	0.005416536
116	0x3b847a93	0.0040429323
117	0xbabe5c5e	-0.0014523377
118	0x3927b2a2	0.00015992907
119	0x3957ce56	0.00020580864
120	0xba4556bc	-0.0007527878
121	0x3a86dba8	0.0010288851
122	0xbba5f707	-0.0050648483
123	0xbb40e0cf	-0.0029430871
124	0x3b2ec387	0.0026666836
125	0x39fa3fc7	0.00047731234
126	0x3b23ce00	0.0024994612
127	0xba9c25d7	-0.0011913133
128	0xb5fb3c65	-1.8718534e-06
129	0xb622ad67	-2.4240815e-06
130	0x3435e36a	1.6939671e-07
131	0x355937db	8.092008e-07
132	0xb47fd7b0	-2.3827192e-07
133	0x35d3a17a	1.5767721e-06
134	0xb4912349	-2.7034028e-07
135	0x345ddc4c	2.0662372e-07
136	0xb5c701b7	-1.4827154e-06
137	0x35ff45a8	1.9019253e-06
138	0xb49884cd	-2.8408832e-07
139	0x362368dc	2.434993e-06
140	0xb4303727	-1.6411342e-07
141	0x35e1f339	1.6834593e-06
142	0xb6b12005	-5.2787386e-06
143	0xb4f050cd	-4.4762274e-07
144	0x359251ab	1.0901616e-06
145	0xb4c0c3e5	-3.590532e-07
146	0xb40eb90d	-1.3292102e-07
147	0x34a609a9	3.0926938e-07
148	0xb56749b1	-8.616144e-07
149	0xb61bd6e9	-2.3221894e-06
150	0x33ed0e30	1.1038753e-07
151	0xb52956e0	-6.3083826e-07
152	0x349ccccd	2.9206277e-07
153	0xb641f611	-2.890247e-06
154	0x362b09c5	2.5486672e-06
155	0x35805ccc	9.563751e-07
156	0xb1a04eb8	-4.665562e-09
157	0x3588e8a7	1.02005e-06
158	0xb3f75a04	-1.15182075e-07
159	0xb47beaee	-2.3461664e-07
160	0xb4133dfb	-1.371299e-07
161	0x3566e606	8.6016405e-07
162	0xb5d7822a	-1.6056631e-06
163	0xb5a5d08c	-1.2354153e-06
164	0xb4f68f5b	-4.5925376e-07
165	0xb448bbf2	-1.8694826e-07
166	0xb589983e	-1.0251604e-06
167	0x3548506d	7.462284e-07
168	0xb5562811	-7.9779517e-07
169	0x34953ee2	2.7799166e-07
170	0xb50253f7	-4.855096e-07
171	0xb6c4b894	-5.862743e-06
172	0xb604b3e8	-1.9774252e-06
173	0x3419b791	1.4316016e-07
174	0x345c1ae1	2.0498875e-07
175	0xb6b15fa3	-5.2861446e-06
176	0xb5ac425c	-1.2834312e-06
177	0xb4a4496d	-3.0600805e-07
178	0x35260f76	6.186232e-07
179	0x35aa311b	1.2680279e-06
180	0xb612b568	-2.1861288e-06
181	0xb42fbb22	-1.6366224e-07
182	0x3523f5b8	6.10798e-07
183	0x32521d48	1.2230267e-08
184	0xb477a71d	-2.3064463e-07
185	0xb4c369bd	-3.6398515e-07
186	0x34be7141	3.547266e-07
187	0x350776dc	5.046438e-07
188	0xb58edf15	-1.064475e-06
189	0x35e37133	1.6945763e-06
190	0xb47adde5	-2.3363789e-07
191	0x350244bc	4.8528796e-07
192	0x32aea8bc	2.0332998e-08
193	0xb5ecf84c	-1.7655634e-06
194	0xb42a1729	-1.584091e-07
195	0x35fa8d37	1.866755e-06
196	0x36174f02	2.2546742e-06
197	0xb5559faf	-7.9581054e-07
198	0xb5e9dcaa	-1.7424074e-06
199	0xb667eb97	-3.4558814e-06
200	0xb3e6c253	-1.0745557e-07
201	0xb39632a4	-6.994131e-08
202	0xb5c0fdc5	-1.4378971e-06
203	0xb537ad54	-6.842504e-07
204	0xb6095759	-2.0465434e-06
205	0x35a9f907	1.2663958e-06
206	0xb5426084	-7.241108e-07
207	0xb4caff46	-3.7811168e-07
208	0xb6bac455	-5.566088e-06
209	0xb61204f8	-2.1758588e-06
210	0xb698398f	-4.5366537e-06
211	0xb5677570	-8.62251e-07
212	0x36de311f	6.621834e-06
213	0xb7372799	-1.09168695e-05
214	0xb60e9a97	-2.1249632e-06
215	0x35790a9a	9.2775156e-07
216	0x376caf46	1.4107505e-05
217	0xb5c98038	-1.5012984e-06
218	0x35835ec0	9.787836e-07
219	0x362ab042	2.543457e-06
220	0xb5024601	-4.8530643e-07
221	0xb60cd2c1	-2.09843e-06
222	0x36bf6888	5.7044126e-06
223	0xb6263ec1	-2.4772455e-06
224	0x357af8b9	9.3494197e-07
225	0x34944d15	2.7623233e-07
226	0x357ea13a	9.485699e-07
227	0xb2f79ff8	-2.882733e-08
228	0x34d36625	3.9376133e-07
229	0xb562c27e	-8.4474584e-07
230	0x3605d454	1.9942136e-06
231	0x34443687	1.827376e-07
232	0xb2d76d6f	-2.5079059e-08
233	0x34ab87d8	3.195007e-07
234	0xb50084c2	-4.7876904e-07
235	0x35e0ffc4	1.6763738e-06
236	0x36071c3d	2.0133004e-06
237	0xb4f5e98e	-4.580474e-07
238	0xb4d079bb	-3.883159e-07
239	0xb584f4ad	-9.905976e-07
240	0x3597241d	1.1260887e-06
241	0x34a7534f	3.116679e-07
242	0x35838162	9.797916e-07
243	0x353379ba	6.685983e-07
244	0x35da1a33	1.6249891e-06
245	0x3639e4c4	2.7700307e-06
246	0xb4be90da	-3.549565e-07
247	0x35b2357e	1.3277602e-06
248	0x34c73232	3.710316e-07
249	0xb53f1139	-7.1178107e-07
250	0xb4dd55fe	-4.1227025e-07
251	0x33136f53	3.4327353e-08
252	0xb60e5bf0	-2.1213164e-06
253	0x34f9e867	4.654896e-07
254	0x35896ad0	1.0238382e-06
255	0xb5283cee	-6.267354e-07

self_attn1.out_proj.weight f4 [128, 128]
0	0x3d53d7ca	0.051719464
1	0xbd1d276c	-0.038367674
2	0xbd3774d1	-0.04478914
3	0x3d8caa26	0.06868391
4	0x3d285b3b	0.04110263
5	0xbd45ef0e	-0.048323683
6	0x3cdfaad5	0.027303139
7	0x3d3e614d	0.046479512
8	0xbda774bb	-0.081765614
9	0x3c525df3	0.012839782
10	0x3c821e5c	0.015883617
11	0xbbefa588	-0.007313434
12	0x3da8eb8c	0.08248052
13	0xbd68ee31	-0.056867782
14	0x3d465e2d	0.048429657
15	0xbd36a1f2	-0.044588037
16	0xbd982fb2	-0.07430972
17	0x3d548192	0.05188138
18	0xbd57a002	-0.05264283
19	0x3bd90b51	0.0066236635
20	0x3d429ab2	0.04751081
21	0xbd996efd	-0.074918725
22	0xbd90d8bb	-0.07072588
23	0x3cfa4910	0.030552417
24	0x3d99f10b	0.075166784
25	0xbaf2cd03	-0.0018524233
26	0x3d840ef8	0.064481676
27	0x3d006d19	0.031354044
28	0x3c993573	0.018702244
29	0xbd72a419	-0.059238527
30	0x3d9f4d66	0.077784345
31	0x3d2819c0	0.041040182
32	0x3c2e37ab	0.010633389
33	0x3d758ada	0.059946872
34	0xbd9bea23	-0.076130174
35	0x3c56b690	0.01310505
36	0xbd16a3ba	-0.036777236
37	0xbc0d5743	-0.008626762
38	0x3cdd16d7	0.02698843
39	0x3d19d236	0.03755399
40	0x3cb543db	0.022127083
41	0xbd8f3abd	-0.06993625
42	0xbd5e3a67	-0.054254916
43	0x3b9fd65c	0.0048778486
44	0xbc890159	-0.016724275
45	0xbd91a85f	-0.07112192
46	0x3db1fe8a	0.086911276
47	0x3c1cd58d	0.009572399
48	0xbd89edcb	-0.067348085
49	0x3d22f126	0.03978076
50	0x3d29d8ba	0.041466452
51	0xbd1bb019	-0.038009737
52	0x3d27b196	0.040940844
53	0xbd52b47c	-0.051441655
54	0x3ce29172	0.027657244
55	0x3dade80b	0.08491524
56	0x3d5eb352	0.054370232
57	0x3d24cab3	0.04023237
58	0xbc8d0759	-0.017215418
59	0x3c734781	0.014848591
60	0x3cdaea7a	0.026723135
61	0x3cb7169a	0.022349644
62	0xbcad8dc6	-0.021185767
63	0x3c0c09b0	0.008547232
64	0xbd0e5f85	-0.034759063
65	0xbd54bab3	-0.051935863
66	0xbdb97787	-0.09056001
67	0xbd99be18	-0.07506961
68	0xbd5daa19	-0.054117296
69	0x3da63d01	0.08117104
70	0x3cc2de64	0.023787685
71	0xbda55ea3	-0.08074691
72	0xbd35373a	-0.04424212
73	0x3ca68149	0.02032532
74	0xbcdd4db3	-0.027014589
75	0xbcedfbaa	-0.029050667
76	0xbd02a142	-0.03189207
77	0xbcc2c33b	-0.023774734
78	0x3c3ccf46	0.011524027
79	0x3c47a9ac	0.012186449
80	0x3d43c884	0.04779865
81	0x3d811b36	0.06304018
82	0x3d8cbf47	0.06872421
83	0x3b464443	0.003025309
84	0xbd035d61	-0.032071475
85	0x3b1fcf9b	0.0024385217
86	0xbd6c07e9	-0.05762473
87	0x3d1a5564	0.03767909
88	0xbc0ae1b2	-0.0084766615
89	0xbcec5a3c	-0.02885162
90	0xbd8c3efa	-0.06847949
91	0x3d1a4eec	0.037672922
92	0x3d4f209c	0.050568208
93	0x3da15b29	0.078787155
94	0xbced287e	-0.028949972
95	0x3cde9ef9	0.027175413
96	0xbc03a1ad	-0.008034152
97	0xbd6466ee	-0.055762224
98	0xbd663653	-0.05620415
99	0x3d36a6ef	0.044592794
100	0xbd2fdaae	-0.04293316
101	0x3d808354	0.06275049
102	0x3cecf3ed	0.028924907
103	0x3cd3466d	0.025790418
104	0x3d770b70	0.060313642
105	0x3d050b08	0.032481223
106	0x3d1679c5	0.036737222
107	0x3d40868e	0.04700332
108	0xbce4aba9	-0.027913885
109	0xbd55a555	-0.052159626
110	0xbca70b5a	-0.020391155
111	0x3d3cf275	0.046129663
112	0x3d7ac431	0.06122226
113	0x3d7d5e80	0.0618577
114	0xbccbf685	-0.024897823
115	0x3b058696	0.002037441
116	0xbd7adabe	-0.061243765
117	0x3d5a8426	0.053348683
118	0xbd677259	-0.056505535
119	0xbd1331f3	-0.035936307
120	0x3d8dbf2c	0.06921229
121	0x3c885b78	0.016645178
122	0xbd2a4a8c	-0.041575
123	0xbd710981	-0.058846954
124	0xbd74c73f	-0.05976033
125	0x3d93b14a	0.072115496
126	0xbd9ca480	-0.076485634
127	0x3d9a8137	0.07544177
128	0x3d8b1b0d	0.06792269
129	0x3c37bc4c	0.011214327
130	0xbc1c00b8	-0.009521656
131	0x3d912f86	0.070891425
132	0x3d2d5ef5	0.042326886
133	0x3db03489	0.0860377
134	0x3d925220	0.0714457
135	0xbd645933	-0.05574913
136	0x3d4fb3db	0.050708633
137	0x3d287ae5	0.041132826
138	0xbd81387c	-0.06309602
139	0x3d28d99c	0.041223153
140	0xbd349c38	-0.044094294
141	0xbd520853	-0.05127747
142	0x39fe2411	0.00048473527
143	0xbbab50ea	-0.0052281516
144	0xbcb2403b	-0.021759143
145	0xbd80624d	-0.062687494
146	0x3d3205ba	0.043462493
147	0x3db9928a	0.09061153
148	0xbc9494fb	-0.018137446
149	0xbd6ee4e0	-0.05832374
150	0xbb69f302	-0.0035697822
151	0xbd9c4b6f	-0.07631575
152	0xbd935457	-0.07193821
153	0xbcc079da	-0.023495603
154	0x3d6bea5f	0.05759656
155	0xbd874eec	-0.0660685
156	0xbc906eff	-0.017631052
157	0xbd46d1fa	-0.048540093
158	0xbdad9b24	-0.08476856
159	0xbc9ff1b7	-0.019524438
160	0xbbfda6a2	-0.0077408114
161	0xbc888449	-0.016664641
162	0x3d83dbb8	0.064383924
163	0x3d0a2949	0.03373078
164	0x3d6a05f1	0.057134572
165	0x3d12a0a9	0.03579775
166	0x3bfbf795	0.007689426
167	0x3d440dfd	0.047864903
168	0xbd708ee4	-0.05873002
169	0x3d2e7049	0.042587552
170	0x3d260dd6	0.04054054
171	0xbd136ec4	-0.035994306
172	0xbbbcb83c	-0.005759267
173	0xbd829ad1	-0.06377185
174	0xbd9a5e3a	-0.075375035
175	0xba7fcc66	-0.0009757936
176	0x3c4f3b09	0.012648352
177	0xbc8c86df	-0.017154155
178	0x3cf5dfba	0.030013908
179	0xbd829cb9	-0.06377549
180	0xbd58dc81	-0.052944664
181	0x3d81f48d	0.063454725
182	0xbdb3a4cf	-0.08771669
183	0x3c8e799d	0.017391974
184	0x3d82560e	0.0636407
185	0x3d802c51	0.06258453
186	0x3cfb5140	0.030678391
187	0xbda92fcf	-0.08261072
188	0x3be15799	0.0068768975
189	0xbd044c3e	-0.032299273
190	0xbceb2939	-0.02870618
191	0x3d840148	0.06445557
192	0xbd075d9c	-0.033048257
193	0xbd81b9cd	-0.06334267
194	0xbd99dbc3	-0.07512619
195	0x3d5abd42	0.053403147
196	0x3bcc45a6	0.0062338887
197	0x3da8ec50	0.08248198
198	0x3ca4a61c	0.020098738
199	0xbdadf362	-0.08493687
200	0x3cb5d168	0.02219458
201	0x3da47bab	0.080314
202	0x3d5fd78e	0.05464893
203	0x3cb70bc9	0.022344487
204	0xbd8489a0	-0.064715624
205	0xbd610da9	-0.054944668
206	0x3d797aab	0.060908
207	0xbd598132	-0.053101726
208	0x3c82a19e	0.015946206
209	0xbbd3aa1c	-0.0064594876
210	0x3cc8ece7	0.024527026
211	0x3c11cff9	0.008899682
212	0xbd767d51	-0.060178105
213	0xbd03749c	-0.03209363
214	0x3d9df4c5	0.07712702
215	0x3c21de82	0.00987971
216	0x3d3e45ed	0.046453405
217	0xbd3891cb	-0.045060914
218	0x3d953e08	0.07287222
219	0xbcb56f5e	-0.02214783
220	0xbcdfcd9a	-0.027319718
221	0x3c5def21	0.013545782
222	0xbcec9a33	-0.028882122
223	0xbd0b1223	-0.033952843
224	0xbc954d39	-0.0182253
225	0xbba90d55	-0.00515906
226	0xbd4e8608	-0.05042079
227	0x3cedc036	0.029022317
228	0xbd9ea7a4	-0.07746819
229	0x3d57b7ff	0.052665707
230	0x3da99759	0.082808204
231	0x3c2811eb	0.010258178
232	0xbc99b176	-0.018761378
233	0xbdb0548b	-0.08609875
234	0x3d206b6b	0.03916494
235	0x3d96e404	0.07367709
236	0x3da30ce4	0.07961443
237	0x3b95ce0c	0.004571682
238	0x3cd0e480	0.025499582
239	0x3da6eb26	0.0815032
240	0x3c53b250	0.012920931
241	0xbd33876e	-0.043830328
242	0xbdac0c7b	-0.08400818
243	0x3d3314ba	0.04372094
244	0x3d0986ee	0.033575945
245	0x3da5eb77	0.08101552
246	0xbd3a9029	-0.045547638
247	0x3d22517a	0.039628483
248	0xbd014d9e	-0.031568162
249	0xbcbbd267	-0.022927476
250	0x3d3fbe16	0.04681214
251	0xbd9ee3f5	-0.07758323
252	0x3d8918aa	0.066941574
253	0x3d2b5382	0.041827686
254	0xbd49e44a	-0.04928998
255	0x3d3958dd	0.045250762

self_attn1.out_proj.bias f4 [128]
0	0xba89e227	-0.0010519669
1	0xbb10542a	-0.0022022822
2	0x3a82fdca	0.0009993848
3	0xbbaa37f2	-0.0051946575
4	0xb9eda3f0	-0.00045326306
5	0xb9aaf5cc	-0.0003260806
6	0x3b078eb3	0.002068442
7	0xba63e127	-0.0008692913
8	0x3afa1cdf	0.0019082091
9	0x3b0062e4	0.0019590193
10	0xbac8878f	-0.0015299189
11	0xbbabd6c6	-0.005244109
12	0xb888aae7	-6.5168184e-05
13	0xba8aac21	-0.0010579863
14	0x3a30fd89	0.0006751647
15	0xbb34b8b5	-0.0027575914
16	0x39fed8ab	0.00048608085
17	0x3af5c184	0.0018749689
18	0x3b4b8843	0.003105656
19	0xbb9fcd54	-0.004876772
20	0x3a39bd8c	0.00070854346
21	0x3b6fa84e	0.0036568823
22	0x39501cf1	0.00019847207
23	0x3911458b	0.00013854184
24	0xbb4b2d2b	-0.0031002264
25	0xba9b61dc	-0.0011854726
26	0x3b1795b5	0.0023130004
27	0x3a95fe59	0.0011443599
28	0xbbc976e5	-0.0061482065
29	0xbaacb8a6	-0.0013177588
30	0x3b3813f3	0.0028088063
31	0xb97a3063	-0.00023859883
32	0x3a8fb9ff	0.0010965465
33	0xb9a8412f	-0.00032092023
34	0xbb3ec81b	-0.0029110971
35	0x3a292290	0.00064519886
36	0xb9488858	-0.00019124278
37	0xbc0b285f	-0.008493512
38	0x3aa83b5b	0.0012835072
39	0x3a960747	0.0011446261
40	0xbb941931	-0.0045196046
41	0xbb6d925b	-0.0036250565
42	0xbb2a374f	-0.0025972908
43	0x3a2dedf0	0.0006634882
44	0xba84ffb5	-0.0010147007
45	0xbae43174	-0.0017409758
46	0x3b9a9ffd	0.004718779
47	0x39069551	0.0001283486
48	0xbaa0216f	-0.0012216995
49	0xbac98058	-0.0015373332
50	0x3aa29001	0.0012402536
51	0xb9c719b2	-0.00037975382
52	0x3c054f00	0.008136511
53	0xbb2405f1	-0.0025027955
54	0xba902154	-0.0010996261
55	0x3afe3670	0.0019394886
56	0xbb490419	-0.0030672608
57	0x3a13f173	0.0005643584
58	0x3a7a15b7	0.0009539979
59	0xbba7f1c7	-0.0051252577
60	0xbb2c32bf	-0.0026275364
61	0x3a98adc5	0.0011648467
62	0xbaa59686	-0.001263336
63	0x3b170f6d	0.0023049966
64	0xbb436dad	-0.002982001
65	0x3b423f12	0.0029639644
66	0xb95ec155	-0.00021243592
67	0xbb946c0d	-0.004529482
68	0x3b871f96	0.0041236384
69	0xba87c633	-0.0010358751
70	0xbb006267	-0.0019589902
71	0x3b69e7b4	0.0035691084
72	0xbb74be31	-0.0037344808
73	0xbb0e1294	-0.0021678554
74	0xbbcee702	-0.0063141594
75	0x3b3d4604	0.0028880844
76	0x3b34f9cc	0.002761471
77	0x3b660053	0.0035095408
78	0xbb0d61f4	-0.0021573277
79	0xb9b2eb9f	-0.00034126357
80	0x3aa10ad2	0.001228655
81	0xba6fd098	-0.00091482094
82	0xbbd000c8	-0.0063477494
83	0x3960f0e5	0.00021452045
84	0xbac48460	-0.0014993064
85	0x39b6c1a2	0.00034858013
86	0x3b0b5f66	0.0021266579
87	0xbace56ce	-0.0015742423
88	0x3b214023	0.002460488
89	0xbbcd0234	-0.006256366
90	0xbb876059	-0.0041313586
91	0xbb5bfe66	-0.0033568381
92	0xbbb4534d	-0.0055030943
93	0xb92c40c7	-0.0001642733
94	0x3a86543b	0.0010248491
95	0xbb5919e5	-0.0033127007
96	0x3ae31485	0.0017324841
97	0xbb4ea519	-0.0031531511
98	0xbb2ad866	-0.0026068925
99	0xbb82d7f8	-0.0039930306
100	0x3ada0646	0.001663395
101	0xbba3e596	-0.005001734
102	0x3aaf260c	0.0013362779
103	0xbb19a51d	-0.0023444362
104	0x3be7689f	0.0070620324
105	0xbb985fa6	-0.004650074
106	0xbb70f1e3	-0.003676527
107	0xb99b5f06	-0.00029634702
108	0x3b566864	0.003271603
109	0xba5e2cc2	-0.00084752974
110	0x39cd2ea7	0.00039135406
111	0xbb3c4f6d	-0.0028733865
112	0xba2b9f0d	-0.0006546833
113	0xba86f7ff	-0.0010297297
114	0x3b862a22	0.004094378
115	0x39029f13	0.00012457026
116	0x39c6bf06	0.00037907826
117	0xbb23d199	-0.0024996756
118	0xb8c3f0e2	-9.3431925e-05
119	0xbac75650	-0.0015208218
120	0x3a8412f2	0.0010076447
121	0xba02bc8e	-0.0004987203
122	0x3b09953b	0.002099349
123	0xbb830743	-0.0039986684
124	0x3bcb854b	0.006210958
125	0xba8631fe	-0.0010238288
126	0xb984e6b8	-0.000253489
127	0x3b34b645	0.0027574461

self_attn2.in_proj_weight f4 [384, 128]
0	0x3c6020ec	0.013679724
1	0x3c98be67	0.018645478
2	0x3c885716	0.016643088
3	0x3a87051c	0.0010301205
4	0xbdab9bd1	-0.08379329
5	0xbdd40da4	-0.10354164
6	0xbd8820bc	-0.066468686
7	0x3d89dfcb	0.06732138
8	0x3cdf3d31	0.027250858
9	0x3dc58985	0.096453704
10	0x3d2be8a9	0.04196993
11	0x3d453112	0.0481425
12	0xbd052ecf	-0.032515343
13	0xbdadf932	-0.08494796
14	0xbdceffe2	-0.101073995
15	0x3db1b22a	0.0867656
16	0xbda4619c	-0.0802643
17	0xbdcb5569	-0.099284
18	0x3c72d0be	0.014820276
19	0xbdc1559c	-0.09440157
20	0xbdb28f24	-0.08718708
21	0xbd75f663	-0.060049426
22	0xbd8f185b	-0.06987067
23	0xbdd0ee68	-0.102017224
24	0xbc1893e7	-0.009312606
25	0x3da83a31	0.08214224
26	0xbd0eb1aa	-0.034837402
27	0x3c7335dd	0.014844385
28	0x3d6960e2	0.05697716
29	0x3c59559d	0.013265041
30	0xbda3a6aa	-0.07990773
31	0xbd5269e2	-0.05137051
32	0xbd958a53	-0.07301774
33	0xbc9be162	-0.01902837
34	0xbd4e3345	-0.050341863
35	0xbc845baa	-0.01615699
36	0x3d92275b	0.07136413
37	0xbd6c0cb9	-0.05762932
38	0x3d45583d	0.048179854
39	0xbd75af67	-0.05998173
40	0xbd0b5396	-0.03401526
41	0xbd7515a3	-0.059835088
42	0x3dafb270	0.08578956
43	0xbd4464bc	-0.04794763
44	0x3d536243	0.05160738
45	0x3d20ce6f	0.03925937
46	0x3d9e9d55	0.077448525
47	0x3bb27d11	0.005447038
48	0x3cac04a3	0.020998305
49	0x3dd050f9	0.10171694
50	0xbd1f1550	-0.038838685
51	0xbda285a2	-0.07935645
52	0xbc204501	-0.009782077
53	0x3bfa1f6e	0.0076331412
54	0xbd9ec877	-0.077530794
55	0xbcb5a9b1	-0.022175642
56	0x3d9eef8f	0.07760536
57	0xbdae90dd	-0.08523724
58	0x3dbc315c	0.09189102
59	0xbd966731	-0.07343901
60	0xbd8dbeea	-0.069211796
61	0xbdc04507	-0.09388166
62	0x3c34bdfc	0.011031624
63	0xbd0938f5	-0.033501584
64	0xbda522a5	-0.080632485
65	0x3d891604	0.06693652
66	0x3c6de2b7	0.014519385
67	0xbcd3e414	-0.025865592
68	0x3d91f4f4	0.07126799
69	0x3d901017	0.07034319
70	0xbd9a6d13	-0.075403355
71	0x3dc3e91a	0.09565945
72	0xbd63b2d0	-0.05559045
73	0xbdb2b486	-0.08725838
74	0xbd02405f	-0.03179967
75	0xbcdae2b1	-0.026719423
76	0xbcc4e3d1	-0.024034413
77	0x3cd976bb	0.026545873
78	0xbba5155f	-0.005037948
79	0xbbf2c1ff	-0.00740838
80	0xbd7641d0	-0.060121357
81	0x3dc5ffdd	0.09667943
82	0xbd3d4f9f	-0.04621851
83	0xbdb7abab	-0.0896829
84	0x3d974850	0.073868394
85	0x3d5622e1	0.052279357
86	0x3d147426	0.03624358
87	0xbd867395	-0.06565014
88	0x3d1e1b19	0.03860006
89	0x3d02f571	0.031972352
90	0xbdd61872	-0.10453881
91	0xbd6aeef7	-0.0573568
92	0xbd1f6b37	-0.038920607
93	0x3dcc065f	0.09962153
94	0x3de030c7	0.109468035
95	0xbd274ee6	-0.040846728
96	0x3d88ff06	0.06689267
97	0xbd173955	-0.03691991
98	0x3c84623f	0.016160129
99	0xbdb703c9	-0.08936269
100	0x3c205d42	0.009787859
101	0x3cf76e35	0.030203918
102	0xbda6ac68	-0.08138353
103	0xbab9ddd1	-0.0014180486
104	0xbd9ebea9	-0.07751209
105	0x3daae7e6	0.08345012
106	0xbc48d191	-0.012256996
107	0x3d8a8679	0.0676393
108	0x3dd70ba6	0.10500269
109	0xbcb0fea1	-0.021605792
110	0xbda94b03	-0.082662605
111	0x3d942dd2	0.07235302
112	0xbd3f27b3	-0.04666872
113	0xbc86bbf4	-0.016447045
114	0x3dac808d	0.084229566
115	0xbd9b5ac7	-0.07585674
116	0x3cb15f1a	0.021651793
117	0xbc0d75a7	-0.008634008
118	0x3dcb6d76	0.099329874
119	0x3c51284d	0.012765956
120	0x3cf77aeb	0.030209979
121	0x3da7ec45	0.08199362
122	0x3c8a000c	0.016845725
123	0xbd47397d	-0.04863881
124	0x3da6845a	0.08130713
125	0x3da388b9	0.07985062
126	0x3c81f8d0	0.015865713
127	0x3ca989bc	0.02069556
128	0x3d65350e	0.0559588
129	0x3dcb238d	0.0991889
130	0x3dcebf00	0.10095024
131	0x3d82b03b	0.063812695
132	0xbd5b5115	-0.053544123
133	0xbdb11e7b	-0.08648392
134	0x3d86c1e6	0.06579952
135	0x3dbdc67b	0.09266373
136	0xbd08f9b8	-0.033441275
137	0xbcdc9bc1	-0.026929738
138	0xbc528af8	-0.012850516
139	0xbd95c0e8	-0.073121846
140	0xbd4970d5	-0.04917987
141	0x3d082cbf	0.0332458
142	0x3d14fa67	0.036371615
143	0x3d42a453	0.047519993
144	0xbc0435ad	-0.008069438
145	0xbdd65b86	-0.104666755
146	0xbd7519c3	-0.05983902
147	0x3cce4d15	0.02518324
148	0x3da60ec8	0.08108288
149	0xba2f2bbc	-0.0006682237
150	0x3d87e3d9	0.06635255
151	0xbdd577a1	-0.10423208
152	0x3dce880a	0.10084541
153	0x3ddfcc38	0.109276235
154	0x3db3817c	0.087649316
155	0xbd904d0a	-0.07045944
156	0xbdd8b311	-0.10581029
157	0xbb72b0e8	-0.0037031714
158	0xbc3cb72c	-0.011518281
159	0x3d0672a4	0.032824174
160	0x3d0c5d86	0.03426888
161	0x3d2cbe0c	0.04217343
162	0xbce3757f	-0.027765987
163	0xbdadbcc6	-0.08483271
164	0xbbb7039c	-0.005585147
165	0xbd8d2890	-0.06892502
166	0xbd46841b	-0.04846583
167	0x3cfebe60	0.031096637
168	0xbcd5015e	-0.026001628
169	0x3d99c63d	0.07508514
170	0xbd8c9217	-0.06863802
171	0xbc2e28d7	-0.010629854
172	0x3ca178c2	0.019710902
173	0x3dc40862	0.095719114
174	0x3d39e66a	0.045385756
175	0x3d4fa071	0.05069012
176	0xbc142c63	-0.009043786
177	0x3dbd773a	0.09251256
178	0x3a9d2df2	0.0011991842
179	0x3dbcf4f1	0.09226406
180	0x3c81effe	0.015861508
181	0xbca59ca3	-0.020216292
182	0x3d893c5f	0.06700968
183	0x3d0c63db	0.034274917
184	0xbd11622e	-0.035494022
185	0xbd7c3f0c	-0.061583564
186	0x3d6c13f4	0.057636216
187	0x3d989282	0.07449819
188	0xbbe0cda9	-0.006860454
189	0x3dc4ab46	0.0960298
190	0xbc6a9dbc	-0.014319833
191	0xbdb68848	-0.08912712
192	0x3dd5825c	0.10425255
193	0xbd3e4452	-0.046451874
194	0x3da500c9	0.080567904
195	0x3d03c6d8	0.032172054
196	0xbde0f892	-0.10984911
197	0x3d859938	0.06523365
198	0xbdb15f54	-0.086607605
199	0x3d930730	0.07179105
200	0xbdc84001	-0.09777833
201	0x3d89932f	0.06717526
202	0x3d68abc3	0.05680443
203	0xbc8736a9	-0.016505556
204	0xbdc24e31	-0.0948757
205	0x3dbe701e	0.092987284
206	0x3c89ad2c	0.016806208
207	0xbd830c77	-0.06398862
208	0x3c980456	0.018556755
209	0x3dafc29b	0.0858204
210	0x3dda8112	0.106691495
211	0xbda92298	-0.08258551
212	0xbb8b7485	-0.0042558336
213	0x3d1c9e91	0.03823716
214	0xbddfc75d	-0.109266974
215	0x3d4e3915	0.050347406
216	0x3da48c79	0.080346055
217	0xbd8d0ced	-0.06887231
218	0x3dd4b518	0.103861034
219	0xbdc0e92b	-0.09419473
220	0xbdb17a92	-0.086659566
221	0xbd2bd6cf	-0.041952904
222	0xbd0c0fa0	-0.03419459
223	0xbd281f5e	-0.04104554
224	0xbd2592b0	-0.040423095
225	0xbddcc847	-0.10780387
226	0xbd10148a	-0.035175838
227	0x3d2cf327	0.042224076
228	0x3da2ea51	0.079548486
229	0x3d802fad	0.062590934
230	0x3d457bb7	0.048213687
231	0x3cccc5d2	0.024996672
232	0x3d652cb6	0.055950843
233	0xbc28fd6d	-0.010314328
234	0x3dbcf558	0.09226483
235	0xbb16f192	-0.002303217
236	0x3d92fd18	0.0717718
237	0xbd5afef8	-0.053465813
238	0xbdb39165	-0.08767966
239	0x3d5ed69d	0.05440389
240	0x3dc714c2	0.09720756
241	0xbd21603a	-0.03939841
242	0xbb5094d2	-0.0031826985
243	0x3db82217	0.08990877
244	0xbdd5c4a1	-0.104378946
245	0x3d4cb0e4	0.049973384
246	0xbdac768d	-0.08421049
247	0xbda0b5ae	-0.07847153
248	0x3d0cf634	0.034414485
249	0x3d95fb35	0.073233046
250	0x3c61e0f9	0.013786548
251	0x3cf6e1e6	0.030137014
252	0xbc865b47	-0.016400946
253	0xbd2235ee	-0.039602213
254	0x3dca13a4	0.098670274
255	0x3db94ac5	0.09047464
